import torch
import torch.nn as nn
import numpy as np
from modules.xfeat import XFeat

class XFeatWrapper(nn.Module):
    def __init__(self):
        super().__init__()
        self.model = XFeat()
    def forward(self, x):
        return self.model.detectAndCompute(x, top_k = 500)

# 1. Initialize Model
model = XFeatWrapper().eval().cuda()

# 2. Create Dummy Input (Standard 640x480 for Jetson)
dummy_input = torch.randn(1, 1, 480, 640).cuda()

# 3. Export to ONNX
print("Exporting xFeat to ONNX (FP32)...")
torch.onnx.export(model, dummy_input, "xfeat.onnx", 
                  input_names=['input'], output_names=['output'],
                  opset_version=12)

# 4. Optional: FP16 Conversion (Using ONNX Runtime tools)
# If you have onnxconverter-common installed:
# pip3 install onnxconverter-common
try:
    from onnxconverter_common import float16
    import onnx
    print("Converting to FP16 for Jetson Nano speed boost...")
    model_onnx = onnx.load("xfeat.onnx")
    model_fp16 = float16.convert_float_to_float16(model_onnx)
    onnx.save(model_fp16, "xfeat_fp16.onnx")
    print("SUCCESS: xfeat_fp16.onnx created!")
except ImportError:
    print("Note: Install 'onnxconverter-common' to enable half-precision.")


prlab@prlab-desktop:~/jetson_camera_project$ /home/prlab/jetson_camera_project/venv/bin/python /home/prlab/jetson_camera_project/xfeat_research/export_xfeat_onnx.py
loading weights from: /home/prlab/jetson_camera_project/xfeat_research/modules/../weights/xfeat.pt
2026-04-10 15:07:09.767749169 [W:onnxruntime:Default, device_discovery.cc:164 DiscoverDevicesForPlatform] GPU device discovery failed: device_discovery.cc:89 ReadFileContents Failed to open file: "/sys/class/drm/card1/device/vendor"
Exporting xFeat to ONNX (FP32)...
/home/prlab/jetson_camera_project/xfeat_research/export_xfeat_onnx.py:21: DeprecationWarning: You are using the legacy TorchScript-based ONNX export. Starting in PyTorch 2.9, the new torch.export-based ONNX exporter will be the default. To switch now, set dynamo=True in torch.onnx.export. This new exporter supports features like exporting LLMs with DynamicCache. We encourage you to try it and share feedback to help improve the experience. Learn more about the new export logic: https://pytorch.org/docs/stable/onnx_dynamo.html. For exporting control flow: https://pytorch.org/tutorials/beginner/onnx/export_control_flow_model_to_onnx_tutorial.html.
  torch.onnx.export(model, dummy_input, "xfeat.onnx",
/home/prlab/jetson_camera_project/xfeat_research/modules/xfeat.py:254: TracerWarning: Iterating over a tensor might cause the trace to be incorrect. Passing a tensor of different shape won't change the number of iterations executed (and might lead to errors or silently give incorrect results).
  pos_batched = [k.nonzero()[..., 1:].flip(-1) for k in pos]
/home/prlab/jetson_camera_project/xfeat_research/modules/xfeat.py:256: TracerWarning: Using len to get tensor shape might cause the trace to be incorrect. Recommended usage would be tensor.shape[0]. Passing a tensor of different shape might lead to errors or silently give incorrect results.
  pad_val = max([len(x) for x in pos_batched])
/home/prlab/jetson_camera_project/xfeat_research/modules/xfeat.py:261: TracerWarning: Using len to get tensor shape might cause the trace to be incorrect. Recommended usage would be tensor.shape[0]. Passing a tensor of different shape might lead to errors or silently give incorrect results.
  pos[b, :len(pos_batched[b]), :] = pos_batched[b]
/home/prlab/jetson_camera_project/xfeat_research/modules/interpolator.py:19: TracerWarning: torch.tensor results are registered as constants in the trace. You can safely ignore this warning if you use this function to create tensors out of constant variables that would be the same every time you call this function. In any other case, this might cause the trace to be incorrect.
  return 2. * (x/(torch.tensor([W-1, H-1], device = x.device, dtype = x.dtype))) - 1.
/home/prlab/jetson_camera_project/xfeat_research/modules/xfeat.py:96: TracerWarning: torch.tensor results are registered as constants in the trace. You can safely ignore this warning if you use this function to create tensors out of constant variables that would be the same every time you call this function. In any other case, this might cause the trace to be incorrect.
  mkpts = mkpts * torch.tensor([rw1,rh1], device=mkpts.device).view(1, 1, -1)
/home/prlab/jetson_camera_project/xfeat_research/modules/xfeat.py:96: TracerWarning: Converting a tensor to a Python float might cause the trace to be incorrect. We can't record the data flow of Python values, so this value will be treated as a constant in the future. This means that the trace might not generalize to other inputs!
  mkpts = mkpts * torch.tensor([rw1,rh1], device=mkpts.device).view(1, 1, -1)
/home/prlab/.local/lib/python3.10/site-packages/torch/onnx/symbolic_helper.py:1460: UserWarning: ONNX export mode is set to TrainingMode.EVAL, but operator 'instance_norm' is set to train=True. Exporting with train=True.
  warnings.warn(
Torch IR graph at exception: graph(%x.1 : Float(1, 1, 480, 640, strides=[307200, 307200, 640, 1], requires_grad=0, device=cuda:0),
      %model.net.skip1.1.weight : Float(24, 1, 1, 1, strides=[1, 1, 1, 1], requires_grad=1, device=cuda:0),
      %model.net.skip1.1.bias : Float(24, strides=[1], requires_grad=1, device=cuda:0),
      %model.net.block1.0.layer.0.weight : Float(4, 1, 3, 3, strides=[9, 9, 3, 1], requires_grad=1, device=cuda:0),
      %model.net.block1.0.layer.1.running_mean : Float(4, strides=[1], requires_grad=0, device=cuda:0),
      %model.net.block1.0.layer.1.running_var : Float(4, strides=[1], requires_grad=0, device=cuda:0),
      %model.net.block1.0.layer.1.num_batches_tracked : Long(requires_grad=0, device=cuda:0),
      %model.net.block1.1.layer.0.weight : Float(8, 4, 3, 3, strides=[36, 9, 3, 1], requires_grad=1, device=cuda:0),
      %model.net.block1.1.layer.1.running_mean : Float(8, strides=[1], requires_grad=0, device=cuda:0),
      %model.net.block1.1.layer.1.running_var : Float(8, strides=[1], requires_grad=0, device=cuda:0),
      %model.net.block1.1.layer.1.num_batches_tracked : Long(requires_grad=0, device=cuda:0),
      %model.net.block1.2.layer.0.weight : Float(8, 8, 3, 3, strides=[72, 9, 3, 1], requires_grad=1, device=cuda:0),
      %model.net.block1.2.layer.1.running_mean : Float(8, strides=[1], requires_grad=0, device=cuda:0),
      %model.net.block1.2.layer.1.running_var : Float(8, strides=[1], requires_grad=0, device=cuda:0),
      %model.net.block1.2.layer.1.num_batches_tracked : Long(requires_grad=0, device=cuda:0),
      %model.net.block1.3.layer.0.weight : Float(24, 8, 3, 3, strides=[72, 9, 3, 1], requires_grad=1, device=cuda:0),
      %model.net.block1.3.layer.1.running_mean : Float(24, strides=[1], requires_grad=0, device=cuda:0),
      %model.net.block1.3.layer.1.running_var : Float(24, strides=[1], requires_grad=0, device=cuda:0),
      %model.net.block1.3.layer.1.num_batches_tracked : Long(requires_grad=0, device=cuda:0),
      %model.net.block2.0.layer.0.weight : Float(24, 24, 3, 3, strides=[216, 9, 3, 1], requires_grad=1, device=cuda:0),
      %model.net.block2.0.layer.1.running_mean : Float(24, strides=[1], requires_grad=0, device=cuda:0),
      %model.net.block2.0.layer.1.running_var : Float(24, strides=[1], requires_grad=0, device=cuda:0),
      %model.net.block2.0.layer.1.num_batches_tracked : Long(requires_grad=0, device=cuda:0),
      %model.net.block2.1.layer.0.weight : Float(24, 24, 3, 3, strides=[216, 9, 3, 1], requires_grad=1, device=cuda:0),
      %model.net.block2.1.layer.1.running_mean : Float(24, strides=[1], requires_grad=0, device=cuda:0),
      %model.net.block2.1.layer.1.running_var : Float(24, strides=[1], requires_grad=0, device=cuda:0),
      %model.net.block2.1.layer.1.num_batches_tracked : Long(requires_grad=0, device=cuda:0),
      %model.net.block3.0.layer.0.weight : Float(64, 24, 3, 3, strides=[216, 9, 3, 1], requires_grad=1, device=cuda:0),
      %model.net.block3.0.layer.1.running_mean : Float(64, strides=[1], requires_grad=0, device=cuda:0),
      %model.net.block3.0.layer.1.running_var : Float(64, strides=[1], requires_grad=0, device=cuda:0),
      %model.net.block3.0.layer.1.num_batches_tracked : Long(requires_grad=0, device=cuda:0),
      %model.net.block3.1.layer.0.weight : Float(64, 64, 3, 3, strides=[576, 9, 3, 1], requires_grad=1, device=cuda:0),
      %model.net.block3.1.layer.1.running_mean : Float(64, strides=[1], requires_grad=0, device=cuda:0),
      %model.net.block3.1.layer.1.running_var : Float(64, strides=[1], requires_grad=0, device=cuda:0),
      %model.net.block3.1.layer.1.num_batches_tracked : Long(requires_grad=0, device=cuda:0),
      %model.net.block3.2.layer.0.weight : Float(64, 64, 1, 1, strides=[64, 1, 1, 1], requires_grad=1, device=cuda:0),
      %model.net.block3.2.layer.1.running_mean : Float(64, strides=[1], requires_grad=0, device=cuda:0),
      %model.net.block3.2.layer.1.running_var : Float(64, strides=[1], requires_grad=0, device=cuda:0),
      %model.net.block3.2.layer.1.num_batches_tracked : Long(requires_grad=0, device=cuda:0),
      %model.net.block4.0.layer.0.weight : Float(64, 64, 3, 3, strides=[576, 9, 3, 1], requires_grad=1, device=cuda:0),
      %model.net.block4.0.layer.1.running_mean : Float(64, strides=[1], requires_grad=0, device=cuda:0),
      %model.net.block4.0.layer.1.running_var : Float(64, strides=[1], requires_grad=0, device=cuda:0),
      %model.net.block4.0.layer.1.num_batches_tracked : Long(requires_grad=0, device=cuda:0),
      %model.net.block4.1.layer.0.weight : Float(64, 64, 3, 3, strides=[576, 9, 3, 1], requires_grad=1, device=cuda:0),
      %model.net.block4.1.layer.1.running_mean : Float(64, strides=[1], requires_grad=0, device=cuda:0),
      %model.net.block4.1.layer.1.running_var : Float(64, strides=[1], requires_grad=0, device=cuda:0),
      %model.net.block4.1.layer.1.num_batches_tracked : Long(requires_grad=0, device=cuda:0),
      %model.net.block4.2.layer.0.weight : Float(64, 64, 3, 3, strides=[576, 9, 3, 1], requires_grad=1, device=cuda:0),
      %model.net.block4.2.layer.1.running_mean : Float(64, strides=[1], requires_grad=0, device=cuda:0),
      %model.net.block4.2.layer.1.running_var : Float(64, strides=[1], requires_grad=0, device=cuda:0),
      %model.net.block4.2.layer.1.num_batches_tracked : Long(requires_grad=0, device=cuda:0),
      %model.net.block5.0.layer.0.weight : Float(128, 64, 3, 3, strides=[576, 9, 3, 1], requires_grad=1, device=cuda:0),
      %model.net.block5.0.layer.1.running_mean : Float(128, strides=[1], requires_grad=0, device=cuda:0),
      %model.net.block5.0.layer.1.running_var : Float(128, strides=[1], requires_grad=0, device=cuda:0),
      %model.net.block5.0.layer.1.num_batches_tracked : Long(requires_grad=0, device=cuda:0),
      %model.net.block5.1.layer.0.weight : Float(128, 128, 3, 3, strides=[1152, 9, 3, 1], requires_grad=1, device=cuda:0),
      %model.net.block5.1.layer.1.running_mean : Float(128, strides=[1], requires_grad=0, device=cuda:0),
      %model.net.block5.1.layer.1.running_var : Float(128, strides=[1], requires_grad=0, device=cuda:0),
      %model.net.block5.1.layer.1.num_batches_tracked : Long(requires_grad=0, device=cuda:0),
      %model.net.block5.2.layer.0.weight : Float(128, 128, 3, 3, strides=[1152, 9, 3, 1], requires_grad=1, device=cuda:0),
      %model.net.block5.2.layer.1.running_mean : Float(128, strides=[1], requires_grad=0, device=cuda:0),
      %model.net.block5.2.layer.1.running_var : Float(128, strides=[1], requires_grad=0, device=cuda:0),
      %model.net.block5.2.layer.1.num_batches_tracked : Long(requires_grad=0, device=cuda:0),
      %model.net.block5.3.layer.0.weight : Float(64, 128, 1, 1, strides=[128, 1, 1, 1], requires_grad=1, device=cuda:0),
      %model.net.block5.3.layer.1.running_mean : Float(64, strides=[1], requires_grad=0, device=cuda:0),
      %model.net.block5.3.layer.1.running_var : Float(64, strides=[1], requires_grad=0, device=cuda:0),
      %model.net.block5.3.layer.1.num_batches_tracked : Long(requires_grad=0, device=cuda:0),
      %model.net.block_fusion.0.layer.0.weight : Float(64, 64, 3, 3, strides=[576, 9, 3, 1], requires_grad=1, device=cuda:0),
      %model.net.block_fusion.0.layer.1.running_mean : Float(64, strides=[1], requires_grad=0, device=cuda:0),
      %model.net.block_fusion.0.layer.1.running_var : Float(64, strides=[1], requires_grad=0, device=cuda:0),
      %model.net.block_fusion.0.layer.1.num_batches_tracked : Long(requires_grad=0, device=cuda:0),
      %model.net.block_fusion.1.layer.0.weight : Float(64, 64, 3, 3, strides=[576, 9, 3, 1], requires_grad=1, device=cuda:0),
      %model.net.block_fusion.1.layer.1.running_mean : Float(64, strides=[1], requires_grad=0, device=cuda:0),
      %model.net.block_fusion.1.layer.1.running_var : Float(64, strides=[1], requires_grad=0, device=cuda:0),
      %model.net.block_fusion.1.layer.1.num_batches_tracked : Long(requires_grad=0, device=cuda:0),
      %model.net.block_fusion.2.weight : Float(64, 64, 1, 1, strides=[64, 1, 1, 1], requires_grad=1, device=cuda:0),
      %model.net.block_fusion.2.bias : Float(64, strides=[1], requires_grad=1, device=cuda:0),
      %model.net.heatmap_head.0.layer.0.weight : Float(64, 64, 1, 1, strides=[64, 1, 1, 1], requires_grad=1, device=cuda:0),
      %model.net.heatmap_head.0.layer.1.running_mean : Float(64, strides=[1], requires_grad=0, device=cuda:0),
      %model.net.heatmap_head.0.layer.1.running_var : Float(64, strides=[1], requires_grad=0, device=cuda:0),
      %model.net.heatmap_head.0.layer.1.num_batches_tracked : Long(requires_grad=0, device=cuda:0),
      %model.net.heatmap_head.1.layer.0.weight : Float(64, 64, 1, 1, strides=[64, 1, 1, 1], requires_grad=1, device=cuda:0),
      %model.net.heatmap_head.1.layer.1.running_mean : Float(64, strides=[1], requires_grad=0, device=cuda:0),
      %model.net.heatmap_head.1.layer.1.running_var : Float(64, strides=[1], requires_grad=0, device=cuda:0),
      %model.net.heatmap_head.1.layer.1.num_batches_tracked : Long(requires_grad=0, device=cuda:0),
      %model.net.heatmap_head.2.weight : Float(1, 64, 1, 1, strides=[64, 1, 1, 1], requires_grad=1, device=cuda:0),
      %model.net.heatmap_head.2.bias : Float(1, strides=[1], requires_grad=1, device=cuda:0),
      %model.net.keypoint_head.0.layer.0.weight : Float(64, 64, 1, 1, strides=[64, 1, 1, 1], requires_grad=1, device=cuda:0),
      %model.net.keypoint_head.0.layer.1.running_mean : Float(64, strides=[1], requires_grad=0, device=cuda:0),
      %model.net.keypoint_head.0.layer.1.running_var : Float(64, strides=[1], requires_grad=0, device=cuda:0),
      %model.net.keypoint_head.0.layer.1.num_batches_tracked : Long(requires_grad=0, device=cuda:0),
      %model.net.keypoint_head.1.layer.0.weight : Float(64, 64, 1, 1, strides=[64, 1, 1, 1], requires_grad=1, device=cuda:0),
      %model.net.keypoint_head.1.layer.1.running_mean : Float(64, strides=[1], requires_grad=0, device=cuda:0),
      %model.net.keypoint_head.1.layer.1.running_var : Float(64, strides=[1], requires_grad=0, device=cuda:0),
      %model.net.keypoint_head.1.layer.1.num_batches_tracked : Long(requires_grad=0, device=cuda:0),
      %model.net.keypoint_head.2.layer.0.weight : Float(64, 64, 1, 1, strides=[64, 1, 1, 1], requires_grad=1, device=cuda:0),
      %model.net.keypoint_head.2.layer.1.running_mean : Float(64, strides=[1], requires_grad=0, device=cuda:0),
      %model.net.keypoint_head.2.layer.1.running_var : Float(64, strides=[1], requires_grad=0, device=cuda:0),
      %model.net.keypoint_head.2.layer.1.num_batches_tracked : Long(requires_grad=0, device=cuda:0),
      %model.net.keypoint_head.3.weight : Float(65, 64, 1, 1, strides=[64, 1, 1, 1], requires_grad=1, device=cuda:0),
      %model.net.keypoint_head.3.bias : Float(65, strides=[1], requires_grad=1, device=cuda:0),
      %model.net.fine_matcher.0.weight : Float(512, 128, strides=[128, 1], requires_grad=1, device=cuda:0),
      %model.net.fine_matcher.0.bias : Float(512, strides=[1], requires_grad=1, device=cuda:0),
      %model.net.fine_matcher.1.running_mean : Float(512, strides=[1], requires_grad=0, device=cuda:0),
      %model.net.fine_matcher.1.running_var : Float(512, strides=[1], requires_grad=0, device=cuda:0),
      %model.net.fine_matcher.1.num_batches_tracked : Long(requires_grad=0, device=cuda:0),
      %model.net.fine_matcher.3.weight : Float(512, 512, strides=[512, 1], requires_grad=1, device=cuda:0),
      %model.net.fine_matcher.3.bias : Float(512, strides=[1], requires_grad=1, device=cuda:0),
      %model.net.fine_matcher.4.running_mean : Float(512, strides=[1], requires_grad=0, device=cuda:0),
      %model.net.fine_matcher.4.running_var : Float(512, strides=[1], requires_grad=0, device=cuda:0),
      %model.net.fine_matcher.4.num_batches_tracked : Long(requires_grad=0, device=cuda:0),
      %model.net.fine_matcher.6.weight : Float(512, 512, strides=[512, 1], requires_grad=1, device=cuda:0),
      %model.net.fine_matcher.6.bias : Float(512, strides=[1], requires_grad=1, device=cuda:0),
      %model.net.fine_matcher.7.running_mean : Float(512, strides=[1], requires_grad=0, device=cuda:0),
      %model.net.fine_matcher.7.running_var : Float(512, strides=[1], requires_grad=0, device=cuda:0),
      %model.net.fine_matcher.7.num_batches_tracked : Long(requires_grad=0, device=cuda:0),
      %model.net.fine_matcher.9.weight : Float(512, 512, strides=[512, 1], requires_grad=1, device=cuda:0),
      %model.net.fine_matcher.9.bias : Float(512, strides=[1], requires_grad=1, device=cuda:0),
      %model.net.fine_matcher.10.running_mean : Float(512, strides=[1], requires_grad=0, device=cuda:0),
      %model.net.fine_matcher.10.running_var : Float(512, strides=[1], requires_grad=0, device=cuda:0),
      %model.net.fine_matcher.10.num_batches_tracked : Long(requires_grad=0, device=cuda:0),
      %model.net.fine_matcher.12.weight : Float(64, 512, strides=[512, 1], requires_grad=1, device=cuda:0),
      %model.net.fine_matcher.12.bias : Float(64, strides=[1], requires_grad=1, device=cuda:0)):
  %6837 : Long(device=cpu) = prim::Constant[value={6}](), scope: __main__.XFeatWrapper::
  %6838 : Long(device=cpu) = prim::Constant[value={0}](), scope: __main__.XFeatWrapper::
  %5326 : Device = prim::Constant[value="cuda"](), scope: __main__.XFeatWrapper:: # /home/prlab/jetson_camera_project/xfeat_research/modules/xfeat.py:233:0
  %5327 : NoneType = prim::Constant(), scope: __main__.XFeatWrapper::
  %6839 : Bool(device=cpu) = prim::Constant[value={0}](), scope: __main__.XFeatWrapper::
  %x.3 : Float(1, 1, 480, 640, strides=[307200, 307200, 640, 1], requires_grad=0, device=cuda:0) = aten::to(%x.1, %6837, %6838, %5326, %5327, %6839, %6839, %5327), scope: __main__.XFeatWrapper:: # /home/prlab/jetson_camera_project/xfeat_research/modules/xfeat.py:233:0
  %x.5 : Float(1, 1, 480, 640, strides=[307200, 307200, 640, 1], requires_grad=0, device=cuda:0) = aten::to(%x.3, %6837, %6839, %6839, %5327), scope: __main__.XFeatWrapper:: # /home/prlab/jetson_camera_project/xfeat_research/modules/xfeat.py:233:0
  %6840 : Long(device=cpu) = prim::Constant[value={2}](), scope: __main__.XFeatWrapper::
  %5344 : Long(device=cpu) = aten::size(%x.5, %6840), scope: __main__.XFeatWrapper:: # /home/prlab/jetson_camera_project/xfeat_research/modules/xfeat.py:235:0
  %6841 : Long(device=cpu) = prim::Constant[value={3}](), scope: __main__.XFeatWrapper::
  %5347 : Long(device=cpu) = aten::size(%x.5, %6841), scope: __main__.XFeatWrapper:: # /home/prlab/jetson_camera_project/xfeat_research/modules/xfeat.py:235:0
  %5349 : Long(requires_grad=0, device=cpu) = prim::Constant[value={32}](), scope: __main__.XFeatWrapper:: # /home/prlab/.local/lib/python3.10/site-packages/torch/_tensor.py:1119:0
  %5350 : Long(requires_grad=0, device=cpu) = aten::floor_divide(%5344, %5349), scope: __main__.XFeatWrapper:: # /home/prlab/.local/lib/python3.10/site-packages/torch/_tensor.py:1119:0
  %6842 : Long(device=cpu) = prim::Constant[value={32}]()
  %_H : Long(requires_grad=0, device=cpu) = aten::mul(%5350, %6842), scope: __main__.XFeatWrapper:: # /home/prlab/jetson_camera_project/xfeat_research/modules/xfeat.py:236:0
  %5355 : Long(requires_grad=0, device=cpu) = aten::floor_divide(%5347, %5349), scope: __main__.XFeatWrapper:: # /home/prlab/.local/lib/python3.10/site-packages/torch/_tensor.py:1119:0
  %6843 : Long(device=cpu) = prim::Constant[value={32}]()
  %_W : Long(requires_grad=0, device=cpu) = aten::mul(%5355, %6843), scope: __main__.XFeatWrapper:: # /home/prlab/jetson_camera_project/xfeat_research/modules/xfeat.py:236:0
  %5361 : int[] = prim::ListConstruct(%_H, %_W), scope: __main__.XFeatWrapper::
  %5364 : Float(1, 1, 480, 640, strides=[307200, 307200, 640, 1], requires_grad=0, device=cuda:0) = aten::upsample_bilinear2d(%x.5, %5361, %6839, %5327), scope: __main__.XFeatWrapper:: # /home/prlab/.local/lib/python3.10/site-packages/torch/nn/functional.py:4772:0
  %6646 : int[] = prim::Constant[value=[1]]()
  %6844 : Bool(device=cpu) = prim::Constant[value={1}](), scope: __main__.XFeatWrapper::/modules.model.XFeatModel::net
  %input.1 : Float(1, 1, 480, 640, strides=[307200, 307200, 640, 1], requires_grad=0, device=cuda:0) = aten::mean(%5364, %6646, %6844, %5327), scope: __main__.XFeatWrapper::/modules.model.XFeatModel::net # /home/prlab/jetson_camera_project/xfeat_research/modules/model.py:135:0
  %6845 : Double(device=cpu) = prim::Constant[value={0.1}](), scope: __main__.XFeatWrapper::/modules.model.XFeatModel::net/torch.nn.modules.instancenorm.InstanceNorm2d::norm
  %6846 : Double(device=cpu) = prim::Constant[value={1e-05}](), scope: __main__.XFeatWrapper::/modules.model.XFeatModel::net/torch.nn.modules.instancenorm.InstanceNorm2d::norm
  %input.3 : Float(1, 1, 480, 640, strides=[307200, 307200, 640, 1], requires_grad=0, device=cuda:0) = aten::instance_norm(%input.1, %5327, %5327, %5327, %5327, %6844, %6845, %6846, %6844), scope: __main__.XFeatWrapper::/modules.model.XFeatModel::net/torch.nn.modules.instancenorm.InstanceNorm2d::norm # /home/prlab/.local/lib/python3.10/site-packages/torch/nn/functional.py:2871:0
  %6647 : int[] = prim::Constant[value=[1, 1]]()
  %6650 : int[] = prim::Constant[value=[0, 0]]()
  %6847 : Long(device=cpu) = prim::Constant[value={1}](), scope: __main__.XFeatWrapper::/modules.model.XFeatModel::net/torch.nn.modules.container.Sequential::block1/modules.model.BasicLayer::block1.0/torch.nn.modules.container.Sequential::layer/torch.nn.modules.conv.Conv2d::layer.0
  %input.5 : Float(1, 4, 480, 640, strides=[1228800, 307200, 640, 1], requires_grad=0, device=cuda:0) = aten::_convolution(%input.3, %model.net.block1.0.layer.0.weight, %5327, %6647, %6647, %6647, %6839, %6650, %6847, %6839, %6839, %6844, %6844), scope: __main__.XFeatWrapper::/modules.model.XFeatModel::net/torch.nn.modules.container.Sequential::block1/modules.model.BasicLayer::block1.0/torch.nn.modules.container.Sequential::layer/torch.nn.modules.conv.Conv2d::layer.0 # /home/prlab/.local/lib/python3.10/site-packages/torch/nn/modules/conv.py:543:0
  %input.7 : Float(1, 4, 480, 640, strides=[1228800, 307200, 640, 1], requires_grad=0, device=cuda:0) = aten::batch_norm(%input.5, %5327, %5327, %model.net.block1.0.layer.1.running_mean, %model.net.block1.0.layer.1.running_var, %6839, %6845, %6846, %6844), scope: __main__.XFeatWrapper::/modules.model.XFeatModel::net/torch.nn.modules.container.Sequential::block1/modules.model.BasicLayer::block1.0/torch.nn.modules.container.Sequential::layer/torch.nn.modules.batchnorm.BatchNorm2d::layer.1 # /home/prlab/.local/lib/python3.10/site-packages/torch/nn/functional.py:2817:0
  %6803 : Float(1, 4, 480, 640, strides=[1228800, 307200, 640, 1], requires_grad=0, device=cuda:0) = aten::relu(%input.7), scope: __main__.XFeatWrapper::/modules.model.XFeatModel::net/torch.nn.modules.container.Sequential::block1/modules.model.BasicLayer::block1.0/torch.nn.modules.container.Sequential::layer/torch.nn.modules.activation.ReLU::layer.2 # /home/prlab/.local/lib/python3.10/site-packages/torch/nn/functional.py:1699:0
  %6651 : int[] = prim::Constant[value=[2, 2]]()
  %input.11 : Float(1, 8, 240, 320, strides=[614400, 76800, 320, 1], requires_grad=0, device=cuda:0) = aten::_convolution(%6803, %model.net.block1.1.layer.0.weight, %5327, %6651, %6647, %6647, %6839, %6650, %6847, %6839, %6839, %6844, %6844), scope: __main__.XFeatWrapper::/modules.model.XFeatModel::net/torch.nn.modules.container.Sequential::block1/modules.model.BasicLayer::block1.1/torch.nn.modules.container.Sequential::layer/torch.nn.modules.conv.Conv2d::layer.0 # /home/prlab/.local/lib/python3.10/site-packages/torch/nn/modules/conv.py:543:0
  %input.13 : Float(1, 8, 240, 320, strides=[614400, 76800, 320, 1], requires_grad=0, device=cuda:0) = aten::batch_norm(%input.11, %5327, %5327, %model.net.block1.1.layer.1.running_mean, %model.net.block1.1.layer.1.running_var, %6839, %6845, %6846, %6844), scope: __main__.XFeatWrapper::/modules.model.XFeatModel::net/torch.nn.modules.container.Sequential::block1/modules.model.BasicLayer::block1.1/torch.nn.modules.container.Sequential::layer/torch.nn.modules.batchnorm.BatchNorm2d::layer.1 # /home/prlab/.local/lib/python3.10/site-packages/torch/nn/functional.py:2817:0
  %6804 : Float(1, 8, 240, 320, strides=[614400, 76800, 320, 1], requires_grad=0, device=cuda:0) = aten::relu(%input.13), scope: __main__.XFeatWrapper::/modules.model.XFeatModel::net/torch.nn.modules.container.Sequential::block1/modules.model.BasicLayer::block1.1/torch.nn.modules.container.Sequential::layer/torch.nn.modules.activation.ReLU::layer.2 # /home/prlab/.local/lib/python3.10/site-packages/torch/nn/functional.py:1699:0
  %input.17 : Float(1, 8, 240, 320, strides=[614400, 76800, 320, 1], requires_grad=0, device=cuda:0) = aten::_convolution(%6804, %model.net.block1.2.layer.0.weight, %5327, %6647, %6647, %6647, %6839, %6650, %6847, %6839, %6839, %6844, %6844), scope: __main__.XFeatWrapper::/modules.model.XFeatModel::net/torch.nn.modules.container.Sequential::block1/modules.model.BasicLayer::block1.2/torch.nn.modules.container.Sequential::layer/torch.nn.modules.conv.Conv2d::layer.0 # /home/prlab/.local/lib/python3.10/site-packages/torch/nn/modules/conv.py:543:0
  %input.19 : Float(1, 8, 240, 320, strides=[614400, 76800, 320, 1], requires_grad=0, device=cuda:0) = aten::batch_norm(%input.17, %5327, %5327, %model.net.block1.2.layer.1.running_mean, %model.net.block1.2.layer.1.running_var, %6839, %6845, %6846, %6844), scope: __main__.XFeatWrapper::/modules.model.XFeatModel::net/torch.nn.modules.container.Sequential::block1/modules.model.BasicLayer::block1.2/torch.nn.modules.container.Sequential::layer/torch.nn.modules.batchnorm.BatchNorm2d::layer.1 # /home/prlab/.local/lib/python3.10/site-packages/torch/nn/functional.py:2817:0
  %6805 : Float(1, 8, 240, 320, strides=[614400, 76800, 320, 1], requires_grad=0, device=cuda:0) = aten::relu(%input.19), scope: __main__.XFeatWrapper::/modules.model.XFeatModel::net/torch.nn.modules.container.Sequential::block1/modules.model.BasicLayer::block1.2/torch.nn.modules.container.Sequential::layer/torch.nn.modules.activation.ReLU::layer.2 # /home/prlab/.local/lib/python3.10/site-packages/torch/nn/functional.py:1699:0
  %input.23 : Float(1, 24, 120, 160, strides=[460800, 19200, 160, 1], requires_grad=0, device=cuda:0) = aten::_convolution(%6805, %model.net.block1.3.layer.0.weight, %5327, %6651, %6647, %6647, %6839, %6650, %6847, %6839, %6839, %6844, %6844), scope: __main__.XFeatWrapper::/modules.model.XFeatModel::net/torch.nn.modules.container.Sequential::block1/modules.model.BasicLayer::block1.3/torch.nn.modules.container.Sequential::layer/torch.nn.modules.conv.Conv2d::layer.0 # /home/prlab/.local/lib/python3.10/site-packages/torch/nn/modules/conv.py:543:0
  %input.25 : Float(1, 24, 120, 160, strides=[460800, 19200, 160, 1], requires_grad=0, device=cuda:0) = aten::batch_norm(%input.23, %5327, %5327, %model.net.block1.3.layer.1.running_mean, %model.net.block1.3.layer.1.running_var, %6839, %6845, %6846, %6844), scope: __main__.XFeatWrapper::/modules.model.XFeatModel::net/torch.nn.modules.container.Sequential::block1/modules.model.BasicLayer::block1.3/torch.nn.modules.container.Sequential::layer/torch.nn.modules.batchnorm.BatchNorm2d::layer.1 # /home/prlab/.local/lib/python3.10/site-packages/torch/nn/functional.py:2817:0
  %6806 : Float(1, 24, 120, 160, strides=[460800, 19200, 160, 1], requires_grad=0, device=cuda:0) = aten::relu(%input.25), scope: __main__.XFeatWrapper::/modules.model.XFeatModel::net/torch.nn.modules.container.Sequential::block1/modules.model.BasicLayer::block1.3/torch.nn.modules.container.Sequential::layer/torch.nn.modules.activation.ReLU::layer.2 # /home/prlab/.local/lib/python3.10/site-packages/torch/nn/functional.py:1699:0
  %6663 : int[] = prim::Constant[value=[4, 4]]()
  %input.27 : Float(1, 1, 120, 160, strides=[19200, 19200, 160, 1], requires_grad=0, device=cuda:0) = aten::avg_pool2d(%input.3, %6663, %6663, %6650, %6839, %6844, %5327), scope: __main__.XFeatWrapper::/modules.model.XFeatModel::net/torch.nn.modules.container.Sequential::skip1/torch.nn.modules.pooling.AvgPool2d::skip1.0 # /home/prlab/.local/lib/python3.10/site-packages/torch/nn/modules/pooling.py:773:0
  %5556 : Float(1, 24, 120, 160, strides=[460800, 19200, 160, 1], requires_grad=0, device=cuda:0) = aten::_convolution(%input.27, %model.net.skip1.1.weight, %model.net.skip1.1.bias, %6647, %6650, %6647, %6839, %6650, %6847, %6839, %6839, %6844, %6844), scope: __main__.XFeatWrapper::/modules.model.XFeatModel::net/torch.nn.modules.container.Sequential::skip1/torch.nn.modules.conv.Conv2d::skip1.1 # /home/prlab/.local/lib/python3.10/site-packages/torch/nn/modules/conv.py:543:0
  %input.29 : Float(1, 24, 120, 160, strides=[460800, 19200, 160, 1], requires_grad=0, device=cuda:0) = aten::add(%6806, %5556, %6847), scope: __main__.XFeatWrapper::/modules.model.XFeatModel::net # /home/prlab/jetson_camera_project/xfeat_research/modules/model.py:140:0
  %input.31 : Float(1, 24, 120, 160, strides=[460800, 19200, 160, 1], requires_grad=0, device=cuda:0) = aten::_convolution(%input.29, %model.net.block2.0.layer.0.weight, %5327, %6647, %6647, %6647, %6839, %6650, %6847, %6839, %6839, %6844, %6844), scope: __main__.XFeatWrapper::/modules.model.XFeatModel::net/torch.nn.modules.container.Sequential::block2/modules.model.BasicLayer::block2.0/torch.nn.modules.container.Sequential::layer/torch.nn.modules.conv.Conv2d::layer.0 # /home/prlab/.local/lib/python3.10/site-packages/torch/nn/modules/conv.py:543:0
  %input.33 : Float(1, 24, 120, 160, strides=[460800, 19200, 160, 1], requires_grad=0, device=cuda:0) = aten::batch_norm(%input.31, %5327, %5327, %model.net.block2.0.layer.1.running_mean, %model.net.block2.0.layer.1.running_var, %6839, %6845, %6846, %6844), scope: __main__.XFeatWrapper::/modules.model.XFeatModel::net/torch.nn.modules.container.Sequential::block2/modules.model.BasicLayer::block2.0/torch.nn.modules.container.Sequential::layer/torch.nn.modules.batchnorm.BatchNorm2d::layer.1 # /home/prlab/.local/lib/python3.10/site-packages/torch/nn/functional.py:2817:0
  %6807 : Float(1, 24, 120, 160, strides=[460800, 19200, 160, 1], requires_grad=0, device=cuda:0) = aten::relu(%input.33), scope: __main__.XFeatWrapper::/modules.model.XFeatModel::net/torch.nn.modules.container.Sequential::block2/modules.model.BasicLayer::block2.0/torch.nn.modules.container.Sequential::layer/torch.nn.modules.activation.ReLU::layer.2 # /home/prlab/.local/lib/python3.10/site-packages/torch/nn/functional.py:1699:0
  %input.37 : Float(1, 24, 120, 160, strides=[460800, 19200, 160, 1], requires_grad=0, device=cuda:0) = aten::_convolution(%6807, %model.net.block2.1.layer.0.weight, %5327, %6647, %6647, %6647, %6839, %6650, %6847, %6839, %6839, %6844, %6844), scope: __main__.XFeatWrapper::/modules.model.XFeatModel::net/torch.nn.modules.container.Sequential::block2/modules.model.BasicLayer::block2.1/torch.nn.modules.container.Sequential::layer/torch.nn.modules.conv.Conv2d::layer.0 # /home/prlab/.local/lib/python3.10/site-packages/torch/nn/modules/conv.py:543:0
  %input.39 : Float(1, 24, 120, 160, strides=[460800, 19200, 160, 1], requires_grad=0, device=cuda:0) = aten::batch_norm(%input.37, %5327, %5327, %model.net.block2.1.layer.1.running_mean, %model.net.block2.1.layer.1.running_var, %6839, %6845, %6846, %6844), scope: __main__.XFeatWrapper::/modules.model.XFeatModel::net/torch.nn.modules.container.Sequential::block2/modules.model.BasicLayer::block2.1/torch.nn.modules.container.Sequential::layer/torch.nn.modules.batchnorm.BatchNorm2d::layer.1 # /home/prlab/.local/lib/python3.10/site-packages/torch/nn/functional.py:2817:0
  %6808 : Float(1, 24, 120, 160, strides=[460800, 19200, 160, 1], requires_grad=0, device=cuda:0) = aten::relu(%input.39), scope: __main__.XFeatWrapper::/modules.model.XFeatModel::net/torch.nn.modules.container.Sequential::block2/modules.model.BasicLayer::block2.1/torch.nn.modules.container.Sequential::layer/torch.nn.modules.activation.ReLU::layer.2 # /home/prlab/.local/lib/python3.10/site-packages/torch/nn/functional.py:1699:0
  %input.43 : Float(1, 64, 60, 80, strides=[307200, 4800, 80, 1], requires_grad=0, device=cuda:0) = aten::_convolution(%6808, %model.net.block3.0.layer.0.weight, %5327, %6651, %6647, %6647, %6839, %6650, %6847, %6839, %6839, %6844, %6844), scope: __main__.XFeatWrapper::/modules.model.XFeatModel::net/torch.nn.modules.container.Sequential::block3/modules.model.BasicLayer::block3.0/torch.nn.modules.container.Sequential::layer/torch.nn.modules.conv.Conv2d::layer.0 # /home/prlab/.local/lib/python3.10/site-packages/torch/nn/modules/conv.py:543:0
  %input.45 : Float(1, 64, 60, 80, strides=[307200, 4800, 80, 1], requires_grad=0, device=cuda:0) = aten::batch_norm(%input.43, %5327, %5327, %model.net.block3.0.layer.1.running_mean, %model.net.block3.0.layer.1.running_var, %6839, %6845, %6846, %6844), scope: __main__.XFeatWrapper::/modules.model.XFeatModel::net/torch.nn.modules.container.Sequential::block3/modules.model.BasicLayer::block3.0/torch.nn.modules.container.Sequential::layer/torch.nn.modules.batchnorm.BatchNorm2d::layer.1 # /home/prlab/.local/lib/python3.10/site-packages/torch/nn/functional.py:2817:0
  %6809 : Float(1, 64, 60, 80, strides=[307200, 4800, 80, 1], requires_grad=0, device=cuda:0) = aten::relu(%input.45), scope: __main__.XFeatWrapper::/modules.model.XFeatModel::net/torch.nn.modules.container.Sequential::block3/modules.model.BasicLayer::block3.0/torch.nn.modules.container.Sequential::layer/torch.nn.modules.activation.ReLU::layer.2 # /home/prlab/.local/lib/python3.10/site-packages/torch/nn/functional.py:1699:0
  %input.49 : Float(1, 64, 60, 80, strides=[307200, 4800, 80, 1], requires_grad=0, device=cuda:0) = aten::_convolution(%6809, %model.net.block3.1.layer.0.weight, %5327, %6647, %6647, %6647, %6839, %6650, %6847, %6839, %6839, %6844, %6844), scope: __main__.XFeatWrapper::/modules.model.XFeatModel::net/torch.nn.modules.container.Sequential::block3/modules.model.BasicLayer::block3.1/torch.nn.modules.container.Sequential::layer/torch.nn.modules.conv.Conv2d::layer.0 # /home/prlab/.local/lib/python3.10/site-packages/torch/nn/modules/conv.py:543:0
  %input.51 : Float(1, 64, 60, 80, strides=[307200, 4800, 80, 1], requires_grad=0, device=cuda:0) = aten::batch_norm(%input.49, %5327, %5327, %model.net.block3.1.layer.1.running_mean, %model.net.block3.1.layer.1.running_var, %6839, %6845, %6846, %6844), scope: __main__.XFeatWrapper::/modules.model.XFeatModel::net/torch.nn.modules.container.Sequential::block3/modules.model.BasicLayer::block3.1/torch.nn.modules.container.Sequential::layer/torch.nn.modules.batchnorm.BatchNorm2d::layer.1 # /home/prlab/.local/lib/python3.10/site-packages/torch/nn/functional.py:2817:0
  %6810 : Float(1, 64, 60, 80, strides=[307200, 4800, 80, 1], requires_grad=0, device=cuda:0) = aten::relu(%input.51), scope: __main__.XFeatWrapper::/modules.model.XFeatModel::net/torch.nn.modules.container.Sequential::block3/modules.model.BasicLayer::block3.1/torch.nn.modules.container.Sequential::layer/torch.nn.modules.activation.ReLU::layer.2 # /home/prlab/.local/lib/python3.10/site-packages/torch/nn/functional.py:1699:0
  %input.55 : Float(1, 64, 60, 80, strides=[307200, 4800, 80, 1], requires_grad=0, device=cuda:0) = aten::_convolution(%6810, %model.net.block3.2.layer.0.weight, %5327, %6647, %6650, %6647, %6839, %6650, %6847, %6839, %6839, %6844, %6844), scope: __main__.XFeatWrapper::/modules.model.XFeatModel::net/torch.nn.modules.container.Sequential::block3/modules.model.BasicLayer::block3.2/torch.nn.modules.container.Sequential::layer/torch.nn.modules.conv.Conv2d::layer.0 # /home/prlab/.local/lib/python3.10/site-packages/torch/nn/modules/conv.py:543:0
  %input.57 : Float(1, 64, 60, 80, strides=[307200, 4800, 80, 1], requires_grad=0, device=cuda:0) = aten::batch_norm(%input.55, %5327, %5327, %model.net.block3.2.layer.1.running_mean, %model.net.block3.2.layer.1.running_var, %6839, %6845, %6846, %6844), scope: __main__.XFeatWrapper::/modules.model.XFeatModel::net/torch.nn.modules.container.Sequential::block3/modules.model.BasicLayer::block3.2/torch.nn.modules.container.Sequential::layer/torch.nn.modules.batchnorm.BatchNorm2d::layer.1 # /home/prlab/.local/lib/python3.10/site-packages/torch/nn/functional.py:2817:0
  %6811 : Float(1, 64, 60, 80, strides=[307200, 4800, 80, 1], requires_grad=0, device=cuda:0) = aten::relu(%input.57), scope: __main__.XFeatWrapper::/modules.model.XFeatModel::net/torch.nn.modules.container.Sequential::block3/modules.model.BasicLayer::block3.2/torch.nn.modules.container.Sequential::layer/torch.nn.modules.activation.ReLU::layer.2 # /home/prlab/.local/lib/python3.10/site-packages/torch/nn/functional.py:1699:0
  %input.61 : Float(1, 64, 30, 40, strides=[76800, 1200, 40, 1], requires_grad=0, device=cuda:0) = aten::_convolution(%6811, %model.net.block4.0.layer.0.weight, %5327, %6651, %6647, %6647, %6839, %6650, %6847, %6839, %6839, %6844, %6844), scope: __main__.XFeatWrapper::/modules.model.XFeatModel::net/torch.nn.modules.container.Sequential::block4/modules.model.BasicLayer::block4.0/torch.nn.modules.container.Sequential::layer/torch.nn.modules.conv.Conv2d::layer.0 # /home/prlab/.local/lib/python3.10/site-packages/torch/nn/modules/conv.py:543:0
  %input.63 : Float(1, 64, 30, 40, strides=[76800, 1200, 40, 1], requires_grad=0, device=cuda:0) = aten::batch_norm(%input.61, %5327, %5327, %model.net.block4.0.layer.1.running_mean, %model.net.block4.0.layer.1.running_var, %6839, %6845, %6846, %6844), scope: __main__.XFeatWrapper::/modules.model.XFeatModel::net/torch.nn.modules.container.Sequential::block4/modules.model.BasicLayer::block4.0/torch.nn.modules.container.Sequential::layer/torch.nn.modules.batchnorm.BatchNorm2d::layer.1 # /home/prlab/.local/lib/python3.10/site-packages/torch/nn/functional.py:2817:0
  %6812 : Float(1, 64, 30, 40, strides=[76800, 1200, 40, 1], requires_grad=0, device=cuda:0) = aten::relu(%input.63), scope: __main__.XFeatWrapper::/modules.model.XFeatModel::net/torch.nn.modules.container.Sequential::block4/modules.model.BasicLayer::block4.0/torch.nn.modules.container.Sequential::layer/torch.nn.modules.activation.ReLU::layer.2 # /home/prlab/.local/lib/python3.10/site-packages/torch/nn/functional.py:1699:0
  %input.67 : Float(1, 64, 30, 40, strides=[76800, 1200, 40, 1], requires_grad=0, device=cuda:0) = aten::_convolution(%6812, %model.net.block4.1.layer.0.weight, %5327, %6647, %6647, %6647, %6839, %6650, %6847, %6839, %6839, %6844, %6844), scope: __main__.XFeatWrapper::/modules.model.XFeatModel::net/torch.nn.modules.container.Sequential::block4/modules.model.BasicLayer::block4.1/torch.nn.modules.container.Sequential::layer/torch.nn.modules.conv.Conv2d::layer.0 # /home/prlab/.local/lib/python3.10/site-packages/torch/nn/modules/conv.py:543:0
  %input.69 : Float(1, 64, 30, 40, strides=[76800, 1200, 40, 1], requires_grad=0, device=cuda:0) = aten::batch_norm(%input.67, %5327, %5327, %model.net.block4.1.layer.1.running_mean, %model.net.block4.1.layer.1.running_var, %6839, %6845, %6846, %6844), scope: __main__.XFeatWrapper::/modules.model.XFeatModel::net/torch.nn.modules.container.Sequential::block4/modules.model.BasicLayer::block4.1/torch.nn.modules.container.Sequential::layer/torch.nn.modules.batchnorm.BatchNorm2d::layer.1 # /home/prlab/.local/lib/python3.10/site-packages/torch/nn/functional.py:2817:0
  %6813 : Float(1, 64, 30, 40, strides=[76800, 1200, 40, 1], requires_grad=0, device=cuda:0) = aten::relu(%input.69), scope: __main__.XFeatWrapper::/modules.model.XFeatModel::net/torch.nn.modules.container.Sequential::block4/modules.model.BasicLayer::block4.1/torch.nn.modules.container.Sequential::layer/torch.nn.modules.activation.ReLU::layer.2 # /home/prlab/.local/lib/python3.10/site-packages/torch/nn/functional.py:1699:0
  %input.73 : Float(1, 64, 30, 40, strides=[76800, 1200, 40, 1], requires_grad=0, device=cuda:0) = aten::_convolution(%6813, %model.net.block4.2.layer.0.weight, %5327, %6647, %6647, %6647, %6839, %6650, %6847, %6839, %6839, %6844, %6844), scope: __main__.XFeatWrapper::/modules.model.XFeatModel::net/torch.nn.modules.container.Sequential::block4/modules.model.BasicLayer::block4.2/torch.nn.modules.container.Sequential::layer/torch.nn.modules.conv.Conv2d::layer.0 # /home/prlab/.local/lib/python3.10/site-packages/torch/nn/modules/conv.py:543:0
  %input.75 : Float(1, 64, 30, 40, strides=[76800, 1200, 40, 1], requires_grad=0, device=cuda:0) = aten::batch_norm(%input.73, %5327, %5327, %model.net.block4.2.layer.1.running_mean, %model.net.block4.2.layer.1.running_var, %6839, %6845, %6846, %6844), scope: __main__.XFeatWrapper::/modules.model.XFeatModel::net/torch.nn.modules.container.Sequential::block4/modules.model.BasicLayer::block4.2/torch.nn.modules.container.Sequential::layer/torch.nn.modules.batchnorm.BatchNorm2d::layer.1 # /home/prlab/.local/lib/python3.10/site-packages/torch/nn/functional.py:2817:0
  %6814 : Float(1, 64, 30, 40, strides=[76800, 1200, 40, 1], requires_grad=0, device=cuda:0) = aten::relu(%input.75), scope: __main__.XFeatWrapper::/modules.model.XFeatModel::net/torch.nn.modules.container.Sequential::block4/modules.model.BasicLayer::block4.2/torch.nn.modules.container.Sequential::layer/torch.nn.modules.activation.ReLU::layer.2 # /home/prlab/.local/lib/python3.10/site-packages/torch/nn/functional.py:1699:0
  %input.79 : Float(1, 128, 15, 20, strides=[38400, 300, 20, 1], requires_grad=0, device=cuda:0) = aten::_convolution(%6814, %model.net.block5.0.layer.0.weight, %5327, %6651, %6647, %6647, %6839, %6650, %6847, %6839, %6839, %6844, %6844), scope: __main__.XFeatWrapper::/modules.model.XFeatModel::net/torch.nn.modules.container.Sequential::block5/modules.model.BasicLayer::block5.0/torch.nn.modules.container.Sequential::layer/torch.nn.modules.conv.Conv2d::layer.0 # /home/prlab/.local/lib/python3.10/site-packages/torch/nn/modules/conv.py:543:0
  %input.81 : Float(1, 128, 15, 20, strides=[38400, 300, 20, 1], requires_grad=0, device=cuda:0) = aten::batch_norm(%input.79, %5327, %5327, %model.net.block5.0.layer.1.running_mean, %model.net.block5.0.layer.1.running_var, %6839, %6845, %6846, %6844), scope: __main__.XFeatWrapper::/modules.model.XFeatModel::net/torch.nn.modules.container.Sequential::block5/modules.model.BasicLayer::block5.0/torch.nn.modules.container.Sequential::layer/torch.nn.modules.batchnorm.BatchNorm2d::layer.1 # /home/prlab/.local/lib/python3.10/site-packages/torch/nn/functional.py:2817:0
  %6815 : Float(1, 128, 15, 20, strides=[38400, 300, 20, 1], requires_grad=0, device=cuda:0) = aten::relu(%input.81), scope: __main__.XFeatWrapper::/modules.model.XFeatModel::net/torch.nn.modules.container.Sequential::block5/modules.model.BasicLayer::block5.0/torch.nn.modules.container.Sequential::layer/torch.nn.modules.activation.ReLU::layer.2 # /home/prlab/.local/lib/python3.10/site-packages/torch/nn/functional.py:1699:0
  %input.85 : Float(1, 128, 15, 20, strides=[38400, 300, 20, 1], requires_grad=0, device=cuda:0) = aten::_convolution(%6815, %model.net.block5.1.layer.0.weight, %5327, %6647, %6647, %6647, %6839, %6650, %6847, %6839, %6839, %6844, %6844), scope: __main__.XFeatWrapper::/modules.model.XFeatModel::net/torch.nn.modules.container.Sequential::block5/modules.model.BasicLayer::block5.1/torch.nn.modules.container.Sequential::layer/torch.nn.modules.conv.Conv2d::layer.0 # /home/prlab/.local/lib/python3.10/site-packages/torch/nn/modules/conv.py:543:0
  %input.87 : Float(1, 128, 15, 20, strides=[38400, 300, 20, 1], requires_grad=0, device=cuda:0) = aten::batch_norm(%input.85, %5327, %5327, %model.net.block5.1.layer.1.running_mean, %model.net.block5.1.layer.1.running_var, %6839, %6845, %6846, %6844), scope: __main__.XFeatWrapper::/modules.model.XFeatModel::net/torch.nn.modules.container.Sequential::block5/modules.model.BasicLayer::block5.1/torch.nn.modules.container.Sequential::layer/torch.nn.modules.batchnorm.BatchNorm2d::layer.1 # /home/prlab/.local/lib/python3.10/site-packages/torch/nn/functional.py:2817:0
  %6816 : Float(1, 128, 15, 20, strides=[38400, 300, 20, 1], requires_grad=0, device=cuda:0) = aten::relu(%input.87), scope: __main__.XFeatWrapper::/modules.model.XFeatModel::net/torch.nn.modules.container.Sequential::block5/modules.model.BasicLayer::block5.1/torch.nn.modules.container.Sequential::layer/torch.nn.modules.activation.ReLU::layer.2 # /home/prlab/.local/lib/python3.10/site-packages/torch/nn/functional.py:1699:0
  %input.91 : Float(1, 128, 15, 20, strides=[38400, 300, 20, 1], requires_grad=0, device=cuda:0) = aten::_convolution(%6816, %model.net.block5.2.layer.0.weight, %5327, %6647, %6647, %6647, %6839, %6650, %6847, %6839, %6839, %6844, %6844), scope: __main__.XFeatWrapper::/modules.model.XFeatModel::net/torch.nn.modules.container.Sequential::block5/modules.model.BasicLayer::block5.2/torch.nn.modules.container.Sequential::layer/torch.nn.modules.conv.Conv2d::layer.0 # /home/prlab/.local/lib/python3.10/site-packages/torch/nn/modules/conv.py:543:0
  %input.93 : Float(1, 128, 15, 20, strides=[38400, 300, 20, 1], requires_grad=0, device=cuda:0) = aten::batch_norm(%input.91, %5327, %5327, %model.net.block5.2.layer.1.running_mean, %model.net.block5.2.layer.1.running_var, %6839, %6845, %6846, %6844), scope: __main__.XFeatWrapper::/modules.model.XFeatModel::net/torch.nn.modules.container.Sequential::block5/modules.model.BasicLayer::block5.2/torch.nn.modules.container.Sequential::layer/torch.nn.modules.batchnorm.BatchNorm2d::layer.1 # /home/prlab/.local/lib/python3.10/site-packages/torch/nn/functional.py:2817:0
  %6817 : Float(1, 128, 15, 20, strides=[38400, 300, 20, 1], requires_grad=0, device=cuda:0) = aten::relu(%input.93), scope: __main__.XFeatWrapper::/modules.model.XFeatModel::net/torch.nn.modules.container.Sequential::block5/modules.model.BasicLayer::block5.2/torch.nn.modules.container.Sequential::layer/torch.nn.modules.activation.ReLU::layer.2 # /home/prlab/.local/lib/python3.10/site-packages/torch/nn/functional.py:1699:0
  %input.97 : Float(1, 64, 15, 20, strides=[19200, 300, 20, 1], requires_grad=0, device=cuda:0) = aten::_convolution(%6817, %model.net.block5.3.layer.0.weight, %5327, %6647, %6650, %6647, %6839, %6650, %6847, %6839, %6839, %6844, %6844), scope: __main__.XFeatWrapper::/modules.model.XFeatModel::net/torch.nn.modules.container.Sequential::block5/modules.model.BasicLayer::block5.3/torch.nn.modules.container.Sequential::layer/torch.nn.modules.conv.Conv2d::layer.0 # /home/prlab/.local/lib/python3.10/site-packages/torch/nn/modules/conv.py:543:0
  %input.99 : Float(1, 64, 15, 20, strides=[19200, 300, 20, 1], requires_grad=0, device=cuda:0) = aten::batch_norm(%input.97, %5327, %5327, %model.net.block5.3.layer.1.running_mean, %model.net.block5.3.layer.1.running_var, %6839, %6845, %6846, %6844), scope: __main__.XFeatWrapper::/modules.model.XFeatModel::net/torch.nn.modules.container.Sequential::block5/modules.model.BasicLayer::block5.3/torch.nn.modules.container.Sequential::layer/torch.nn.modules.batchnorm.BatchNorm2d::layer.1 # /home/prlab/.local/lib/python3.10/site-packages/torch/nn/functional.py:2817:0
  %6818 : Float(1, 64, 15, 20, strides=[19200, 300, 20, 1], requires_grad=0, device=cuda:0) = aten::relu(%input.99), scope: __main__.XFeatWrapper::/modules.model.XFeatModel::net/torch.nn.modules.container.Sequential::block5/modules.model.BasicLayer::block5.3/torch.nn.modules.container.Sequential::layer/torch.nn.modules.activation.ReLU::layer.2 # /home/prlab/.local/lib/python3.10/site-packages/torch/nn/functional.py:1699:0
  %5902 : Long(device=cpu) = aten::size(%6811, %6840), scope: __main__.XFeatWrapper::/modules.model.XFeatModel::net # /home/prlab/jetson_camera_project/xfeat_research/modules/model.py:146:0
  %5918 : Long(device=cpu) = aten::size(%6811, %6841), scope: __main__.XFeatWrapper::/modules.model.XFeatModel::net # /home/prlab/jetson_camera_project/xfeat_research/modules/model.py:146:0
  %5921 : int[] = prim::ListConstruct(%5902, %5918), scope: __main__.XFeatWrapper::/modules.model.XFeatModel::net
  %5924 : Float(1, 64, 60, 80, strides=[307200, 4800, 80, 1], requires_grad=0, device=cuda:0) = aten::upsample_bilinear2d(%6814, %5921, %6839, %5327), scope: __main__.XFeatWrapper::/modules.model.XFeatModel::net # /home/prlab/.local/lib/python3.10/site-packages/torch/nn/functional.py:4772:0
  %5932 : Long(device=cpu) = aten::size(%6811, %6840), scope: __main__.XFeatWrapper::/modules.model.XFeatModel::net # /home/prlab/jetson_camera_project/xfeat_research/modules/model.py:147:0
  %5948 : Long(device=cpu) = aten::size(%6811, %6841), scope: __main__.XFeatWrapper::/modules.model.XFeatModel::net # /home/prlab/jetson_camera_project/xfeat_research/modules/model.py:147:0
  %5951 : int[] = prim::ListConstruct(%5932, %5948), scope: __main__.XFeatWrapper::/modules.model.XFeatModel::net
  %5954 : Float(1, 64, 60, 80, strides=[307200, 4800, 80, 1], requires_grad=0, device=cuda:0) = aten::upsample_bilinear2d(%6818, %5951, %6839, %5327), scope: __main__.XFeatWrapper::/modules.model.XFeatModel::net # /home/prlab/.local/lib/python3.10/site-packages/torch/nn/functional.py:4772:0
  %5956 : Float(1, 64, 60, 80, strides=[307200, 4800, 80, 1], requires_grad=0, device=cuda:0) = aten::add(%6811, %5924, %6847), scope: __main__.XFeatWrapper::/modules.model.XFeatModel::net # /home/prlab/jetson_camera_project/xfeat_research/modules/model.py:148:0
  %input.101 : Float(1, 64, 60, 80, strides=[307200, 4800, 80, 1], requires_grad=0, device=cuda:0) = aten::add(%5956, %5954, %6847), scope: __main__.XFeatWrapper::/modules.model.XFeatModel::net # /home/prlab/jetson_camera_project/xfeat_research/modules/model.py:148:0
  %input.103 : Float(1, 64, 60, 80, strides=[307200, 4800, 80, 1], requires_grad=0, device=cuda:0) = aten::_convolution(%input.101, %model.net.block_fusion.0.layer.0.weight, %5327, %6647, %6647, %6647, %6839, %6650, %6847, %6839, %6839, %6844, %6844), scope: __main__.XFeatWrapper::/modules.model.XFeatModel::net/torch.nn.modules.container.Sequential::block_fusion/modules.model.BasicLayer::block_fusion.0/torch.nn.modules.container.Sequential::layer/torch.nn.modules.conv.Conv2d::layer.0 # /home/prlab/.local/lib/python3.10/site-packages/torch/nn/modules/conv.py:543:0
  %input.105 : Float(1, 64, 60, 80, strides=[307200, 4800, 80, 1], requires_grad=0, device=cuda:0) = aten::batch_norm(%input.103, %5327, %5327, %model.net.block_fusion.0.layer.1.running_mean, %model.net.block_fusion.0.layer.1.running_var, %6839, %6845, %6846, %6844), scope: __main__.XFeatWrapper::/modules.model.XFeatModel::net/torch.nn.modules.container.Sequential::block_fusion/modules.model.BasicLayer::block_fusion.0/torch.nn.modules.container.Sequential::layer/torch.nn.modules.batchnorm.BatchNorm2d::layer.1 # /home/prlab/.local/lib/python3.10/site-packages/torch/nn/functional.py:2817:0
  %6819 : Float(1, 64, 60, 80, strides=[307200, 4800, 80, 1], requires_grad=0, device=cuda:0) = aten::relu(%input.105), scope: __main__.XFeatWrapper::/modules.model.XFeatModel::net/torch.nn.modules.container.Sequential::block_fusion/modules.model.BasicLayer::block_fusion.0/torch.nn.modules.container.Sequential::layer/torch.nn.modules.activation.ReLU::layer.2 # /home/prlab/.local/lib/python3.10/site-packages/torch/nn/functional.py:1699:0
  %input.109 : Float(1, 64, 60, 80, strides=[307200, 4800, 80, 1], requires_grad=0, device=cuda:0) = aten::_convolution(%6819, %model.net.block_fusion.1.layer.0.weight, %5327, %6647, %6647, %6647, %6839, %6650, %6847, %6839, %6839, %6844, %6844), scope: __main__.XFeatWrapper::/modules.model.XFeatModel::net/torch.nn.modules.container.Sequential::block_fusion/modules.model.BasicLayer::block_fusion.1/torch.nn.modules.container.Sequential::layer/torch.nn.modules.conv.Conv2d::layer.0 # /home/prlab/.local/lib/python3.10/site-packages/torch/nn/modules/conv.py:543:0
  %input.111 : Float(1, 64, 60, 80, strides=[307200, 4800, 80, 1], requires_grad=0, device=cuda:0) = aten::batch_norm(%input.109, %5327, %5327, %model.net.block_fusion.1.layer.1.running_mean, %model.net.block_fusion.1.layer.1.running_var, %6839, %6845, %6846, %6844), scope: __main__.XFeatWrapper::/modules.model.XFeatModel::net/torch.nn.modules.container.Sequential::block_fusion/modules.model.BasicLayer::block_fusion.1/torch.nn.modules.container.Sequential::layer/torch.nn.modules.batchnorm.BatchNorm2d::layer.1 # /home/prlab/.local/lib/python3.10/site-packages/torch/nn/functional.py:2817:0
  %6820 : Float(1, 64, 60, 80, strides=[307200, 4800, 80, 1], requires_grad=0, device=cuda:0) = aten::relu(%input.111), scope: __main__.XFeatWrapper::/modules.model.XFeatModel::net/torch.nn.modules.container.Sequential::block_fusion/modules.model.BasicLayer::block_fusion.1/torch.nn.modules.container.Sequential::layer/torch.nn.modules.activation.ReLU::layer.2 # /home/prlab/.local/lib/python3.10/site-packages/torch/nn/functional.py:1699:0
  %input.115 : Float(1, 64, 60, 80, strides=[307200, 4800, 80, 1], requires_grad=0, device=cuda:0) = aten::_convolution(%6820, %model.net.block_fusion.2.weight, %model.net.block_fusion.2.bias, %6647, %6650, %6647, %6839, %6650, %6847, %6839, %6839, %6844, %6844), scope: __main__.XFeatWrapper::/modules.model.XFeatModel::net/torch.nn.modules.container.Sequential::block_fusion/torch.nn.modules.conv.Conv2d::block_fusion.2 # /home/prlab/.local/lib/python3.10/site-packages/torch/nn/modules/conv.py:543:0
  %input.117 : Float(1, 64, 60, 80, strides=[307200, 4800, 80, 1], requires_grad=0, device=cuda:0) = aten::_convolution(%input.115, %model.net.heatmap_head.0.layer.0.weight, %5327, %6647, %6650, %6647, %6839, %6650, %6847, %6839, %6839, %6844, %6844), scope: __main__.XFeatWrapper::/modules.model.XFeatModel::net/torch.nn.modules.container.Sequential::heatmap_head/modules.model.BasicLayer::heatmap_head.0/torch.nn.modules.container.Sequential::layer/torch.nn.modules.conv.Conv2d::layer.0 # /home/prlab/.local/lib/python3.10/site-packages/torch/nn/modules/conv.py:543:0
  %input.119 : Float(1, 64, 60, 80, strides=[307200, 4800, 80, 1], requires_grad=0, device=cuda:0) = aten::batch_norm(%input.117, %5327, %5327, %model.net.heatmap_head.0.layer.1.running_mean, %model.net.heatmap_head.0.layer.1.running_var, %6839, %6845, %6846, %6844), scope: __main__.XFeatWrapper::/modules.model.XFeatModel::net/torch.nn.modules.container.Sequential::heatmap_head/modules.model.BasicLayer::heatmap_head.0/torch.nn.modules.container.Sequential::layer/torch.nn.modules.batchnorm.BatchNorm2d::layer.1 # /home/prlab/.local/lib/python3.10/site-packages/torch/nn/functional.py:2817:0
  %6821 : Float(1, 64, 60, 80, strides=[307200, 4800, 80, 1], requires_grad=0, device=cuda:0) = aten::relu(%input.119), scope: __main__.XFeatWrapper::/modules.model.XFeatModel::net/torch.nn.modules.container.Sequential::heatmap_head/modules.model.BasicLayer::heatmap_head.0/torch.nn.modules.container.Sequential::layer/torch.nn.modules.activation.ReLU::layer.2 # /home/prlab/.local/lib/python3.10/site-packages/torch/nn/functional.py:1699:0
  %input.123 : Float(1, 64, 60, 80, strides=[307200, 4800, 80, 1], requires_grad=0, device=cuda:0) = aten::_convolution(%6821, %model.net.heatmap_head.1.layer.0.weight, %5327, %6647, %6650, %6647, %6839, %6650, %6847, %6839, %6839, %6844, %6844), scope: __main__.XFeatWrapper::/modules.model.XFeatModel::net/torch.nn.modules.container.Sequential::heatmap_head/modules.model.BasicLayer::heatmap_head.1/torch.nn.modules.container.Sequential::layer/torch.nn.modules.conv.Conv2d::layer.0 # /home/prlab/.local/lib/python3.10/site-packages/torch/nn/modules/conv.py:543:0
  %input.125 : Float(1, 64, 60, 80, strides=[307200, 4800, 80, 1], requires_grad=0, device=cuda:0) = aten::batch_norm(%input.123, %5327, %5327, %model.net.heatmap_head.1.layer.1.running_mean, %model.net.heatmap_head.1.layer.1.running_var, %6839, %6845, %6846, %6844), scope: __main__.XFeatWrapper::/modules.model.XFeatModel::net/torch.nn.modules.container.Sequential::heatmap_head/modules.model.BasicLayer::heatmap_head.1/torch.nn.modules.container.Sequential::layer/torch.nn.modules.batchnorm.BatchNorm2d::layer.1 # /home/prlab/.local/lib/python3.10/site-packages/torch/nn/functional.py:2817:0
  %6822 : Float(1, 64, 60, 80, strides=[307200, 4800, 80, 1], requires_grad=0, device=cuda:0) = aten::relu(%input.125), scope: __main__.XFeatWrapper::/modules.model.XFeatModel::net/torch.nn.modules.container.Sequential::heatmap_head/modules.model.BasicLayer::heatmap_head.1/torch.nn.modules.container.Sequential::layer/torch.nn.modules.activation.ReLU::layer.2 # /home/prlab/.local/lib/python3.10/site-packages/torch/nn/functional.py:1699:0
  %6108 : Float(1, 1, 60, 80, strides=[4800, 4800, 80, 1], requires_grad=0, device=cuda:0) = aten::_convolution(%6822, %model.net.heatmap_head.2.weight, %model.net.heatmap_head.2.bias, %6647, %6650, %6647, %6839, %6650, %6847, %6839, %6839, %6844, %6844), scope: __main__.XFeatWrapper::/modules.model.XFeatModel::net/torch.nn.modules.container.Sequential::heatmap_head/torch.nn.modules.conv.Conv2d::heatmap_head.2 # /home/prlab/.local/lib/python3.10/site-packages/torch/nn/modules/conv.py:543:0
  %x.9 : Float(1, 1, 60, 80, strides=[4800, 4800, 80, 1], requires_grad=0, device=cuda:0) = aten::sigmoid(%6108), scope: __main__.XFeatWrapper::/modules.model.XFeatModel::net/torch.nn.modules.container.Sequential::heatmap_head/torch.nn.modules.activation.Sigmoid::heatmap_head.3 # /home/prlab/.local/lib/python3.10/site-packages/torch/nn/modules/activation.py:329:0
  %6111 : Long(device=cpu) = aten::size(%input.3, %6838), scope: __main__.XFeatWrapper::/modules.model.XFeatModel::net # /home/prlab/jetson_camera_project/xfeat_research/modules/model.py:117:0
  %6116 : Long(device=cpu) = aten::size(%input.3, %6847), scope: __main__.XFeatWrapper::/modules.model.XFeatModel::net # /home/prlab/jetson_camera_project/xfeat_research/modules/model.py:117:0
  %6120 : Long(device=cpu) = aten::size(%input.3, %6840), scope: __main__.XFeatWrapper::/modules.model.XFeatModel::net # /home/prlab/jetson_camera_project/xfeat_research/modules/model.py:117:0
  %6123 : Long(device=cpu) = aten::size(%input.3, %6841), scope: __main__.XFeatWrapper::/modules.model.XFeatModel::net # /home/prlab/jetson_camera_project/xfeat_research/modules/model.py:117:0
  %6848 : Long(device=cpu) = prim::Constant[value={8}](), scope: __main__.XFeatWrapper::/modules.model.XFeatModel::net
  %6128 : Float(1, 1, 60, 640, 8, strides=[307200, 307200, 5120, 1, 640], requires_grad=0, device=cuda:0) = aten::unfold(%input.3, %6840, %6848, %6848), scope: __main__.XFeatWrapper::/modules.model.XFeatModel::net # /home/prlab/jetson_camera_project/xfeat_research/modules/model.py:118:0
  %6132 : Float(1, 1, 60, 80, 8, 8, strides=[307200, 307200, 5120, 8, 640, 1], requires_grad=0, device=cuda:0) = aten::unfold(%6128, %6841, %6848, %6848), scope: __main__.XFeatWrapper::/modules.model.XFeatModel::net # /home/prlab/jetson_camera_project/xfeat_research/modules/model.py:118:0
  %6133 : Long(requires_grad=0, device=cpu) = prim::Constant[value={8}](), scope: __main__.XFeatWrapper::/modules.model.XFeatModel::net # /home/prlab/.local/lib/python3.10/site-packages/torch/_tensor.py:1119:0
  %6134 : Long(requires_grad=0, device=cpu) = aten::floor_divide(%6120, %6133), scope: __main__.XFeatWrapper::/modules.model.XFeatModel::net # /home/prlab/.local/lib/python3.10/site-packages/torch/_tensor.py:1119:0
  %6137 : Long(requires_grad=0, device=cpu) = aten::floor_divide(%6123, %6133), scope: __main__.XFeatWrapper::/modules.model.XFeatModel::net # /home/prlab/.local/lib/python3.10/site-packages/torch/_tensor.py:1119:0
  %6849 : Long(device=cpu) = prim::Constant[value={64}](), scope: __main__.XFeatWrapper::/modules.model.XFeatModel::net
  %6140 : int[] = prim::ListConstruct(%6111, %6116, %6134, %6137, %6849), scope: __main__.XFeatWrapper::/modules.model.XFeatModel::net
  %6141 : Float(1, 1, 60, 80, 64, strides=[307200, 307200, 5120, 64, 1], requires_grad=0, device=cuda:0) = aten::reshape(%6132, %6140), scope: __main__.XFeatWrapper::/modules.model.XFeatModel::net # /home/prlab/jetson_camera_project/xfeat_research/modules/model.py:119:0
  %6742 : int[] = prim::Constant[value=[0, 1, 4, 2, 3]]()
  %6148 : Float(1, 1, 64, 60, 80, strides=[307200, 307200, 1, 5120, 64], requires_grad=0, device=cuda:0) = aten::permute(%6141, %6742), scope: __main__.XFeatWrapper::/modules.model.XFeatModel::net # /home/prlab/jetson_camera_project/xfeat_research/modules/model.py:120:0
  %6850 : Long(device=cpu) = prim::Constant[value={-1}](), scope: __main__.XFeatWrapper::/modules.model.XFeatModel::net
  %6156 : int[] = prim::ListConstruct(%6111, %6850, %6134, %6137), scope: __main__.XFeatWrapper::/modules.model.XFeatModel::net
  %input.129 : Float(1, 64, 60, 80, strides=[64, 1, 5120, 64], requires_grad=0, device=cuda:0) = aten::reshape(%6148, %6156), scope: __main__.XFeatWrapper::/modules.model.XFeatModel::net # /home/prlab/jetson_camera_project/xfeat_research/modules/model.py:120:0
  %input.131 : Float(1, 64, 60, 80, strides=[307200, 4800, 80, 1], requires_grad=0, device=cuda:0) = aten::_convolution(%input.129, %model.net.keypoint_head.0.layer.0.weight, %5327, %6647, %6650, %6647, %6839, %6650, %6847, %6839, %6839, %6844, %6844), scope: __main__.XFeatWrapper::/modules.model.XFeatModel::net/torch.nn.modules.container.Sequential::keypoint_head/modules.model.BasicLayer::keypoint_head.0/torch.nn.modules.container.Sequential::layer/torch.nn.modules.conv.Conv2d::layer.0 # /home/prlab/.local/lib/python3.10/site-packages/torch/nn/modules/conv.py:543:0
  %input.133 : Float(1, 64, 60, 80, strides=[307200, 4800, 80, 1], requires_grad=0, device=cuda:0) = aten::batch_norm(%input.131, %5327, %5327, %model.net.keypoint_head.0.layer.1.running_mean, %model.net.keypoint_head.0.layer.1.running_var, %6839, %6845, %6846, %6844), scope: __main__.XFeatWrapper::/modules.model.XFeatModel::net/torch.nn.modules.container.Sequential::keypoint_head/modules.model.BasicLayer::keypoint_head.0/torch.nn.modules.container.Sequential::layer/torch.nn.modules.batchnorm.BatchNorm2d::layer.1 # /home/prlab/.local/lib/python3.10/site-packages/torch/nn/functional.py:2817:0
  %6823 : Float(1, 64, 60, 80, strides=[307200, 4800, 80, 1], requires_grad=0, device=cuda:0) = aten::relu(%input.133), scope: __main__.XFeatWrapper::/modules.model.XFeatModel::net/torch.nn.modules.container.Sequential::keypoint_head/modules.model.BasicLayer::keypoint_head.0/torch.nn.modules.container.Sequential::layer/torch.nn.modules.activation.ReLU::layer.2 # /home/prlab/.local/lib/python3.10/site-packages/torch/nn/functional.py:1699:0
  %input.137 : Float(1, 64, 60, 80, strides=[307200, 4800, 80, 1], requires_grad=0, device=cuda:0) = aten::_convolution(%6823, %model.net.keypoint_head.1.layer.0.weight, %5327, %6647, %6650, %6647, %6839, %6650, %6847, %6839, %6839, %6844, %6844), scope: __main__.XFeatWrapper::/modules.model.XFeatModel::net/torch.nn.modules.container.Sequential::keypoint_head/modules.model.BasicLayer::keypoint_head.1/torch.nn.modules.container.Sequential::layer/torch.nn.modules.conv.Conv2d::layer.0 # /home/prlab/.local/lib/python3.10/site-packages/torch/nn/modules/conv.py:543:0
  %input.139 : Float(1, 64, 60, 80, strides=[307200, 4800, 80, 1], requires_grad=0, device=cuda:0) = aten::batch_norm(%input.137, %5327, %5327, %model.net.keypoint_head.1.layer.1.running_mean, %model.net.keypoint_head.1.layer.1.running_var, %6839, %6845, %6846, %6844), scope: __main__.XFeatWrapper::/modules.model.XFeatModel::net/torch.nn.modules.container.Sequential::keypoint_head/modules.model.BasicLayer::keypoint_head.1/torch.nn.modules.container.Sequential::layer/torch.nn.modules.batchnorm.BatchNorm2d::layer.1 # /home/prlab/.local/lib/python3.10/site-packages/torch/nn/functional.py:2817:0
  %6824 : Float(1, 64, 60, 80, strides=[307200, 4800, 80, 1], requires_grad=0, device=cuda:0) = aten::relu(%input.139), scope: __main__.XFeatWrapper::/modules.model.XFeatModel::net/torch.nn.modules.container.Sequential::keypoint_head/modules.model.BasicLayer::keypoint_head.1/torch.nn.modules.container.Sequential::layer/torch.nn.modules.activation.ReLU::layer.2 # /home/prlab/.local/lib/python3.10/site-packages/torch/nn/functional.py:1699:0
  %input.143 : Float(1, 64, 60, 80, strides=[307200, 4800, 80, 1], requires_grad=0, device=cuda:0) = aten::_convolution(%6824, %model.net.keypoint_head.2.layer.0.weight, %5327, %6647, %6650, %6647, %6839, %6650, %6847, %6839, %6839, %6844, %6844), scope: __main__.XFeatWrapper::/modules.model.XFeatModel::net/torch.nn.modules.container.Sequential::keypoint_head/modules.model.BasicLayer::keypoint_head.2/torch.nn.modules.container.Sequential::layer/torch.nn.modules.conv.Conv2d::layer.0 # /home/prlab/.local/lib/python3.10/site-packages/torch/nn/modules/conv.py:543:0
  %input.145 : Float(1, 64, 60, 80, strides=[307200, 4800, 80, 1], requires_grad=0, device=cuda:0) = aten::batch_norm(%input.143, %5327, %5327, %model.net.keypoint_head.2.layer.1.running_mean, %model.net.keypoint_head.2.layer.1.running_var, %6839, %6845, %6846, %6844), scope: __main__.XFeatWrapper::/modules.model.XFeatModel::net/torch.nn.modules.container.Sequential::keypoint_head/modules.model.BasicLayer::keypoint_head.2/torch.nn.modules.container.Sequential::layer/torch.nn.modules.batchnorm.BatchNorm2d::layer.1 # /home/prlab/.local/lib/python3.10/site-packages/torch/nn/functional.py:2817:0
  %6825 : Float(1, 64, 60, 80, strides=[307200, 4800, 80, 1], requires_grad=0, device=cuda:0) = aten::relu(%input.145), scope: __main__.XFeatWrapper::/modules.model.XFeatModel::net/torch.nn.modules.container.Sequential::keypoint_head/modules.model.BasicLayer::keypoint_head.2/torch.nn.modules.container.Sequential::layer/torch.nn.modules.activation.ReLU::layer.2 # /home/prlab/.local/lib/python3.10/site-packages/torch/nn/functional.py:1699:0
  %K1 : Float(1, 65, 60, 80, strides=[312000, 4800, 80, 1], requires_grad=0, device=cuda:0) = aten::_convolution(%6825, %model.net.keypoint_head.3.weight, %model.net.keypoint_head.3.bias, %6647, %6650, %6647, %6839, %6650, %6847, %6839, %6839, %6844, %6844), scope: __main__.XFeatWrapper::/modules.model.XFeatModel::net/torch.nn.modules.container.Sequential::keypoint_head/torch.nn.modules.conv.Conv2d::keypoint_head.3 # /home/prlab/.local/lib/python3.10/site-packages/torch/nn/modules/conv.py:543:0
  %6851 : Double(device=cpu) = prim::Constant[value={2}](), scope: __main__.XFeatWrapper::
  %6270 : Float(1, 1, 60, 80, strides=[4800, 4800, 80, 1], requires_grad=0, device=cuda:0) = aten::linalg_vector_norm(%input.115, %6851, %6646, %6844, %5327), scope: __main__.XFeatWrapper:: # /home/prlab/.local/lib/python3.10/site-packages/torch/functional.py:1855:0
  %6852 : Double(device=cpu) = prim::Constant[value={1e-12}](), scope: __main__.XFeatWrapper::
  %6272 : Float(1, 1, 60, 80, strides=[4800, 4800, 80, 1], requires_grad=0, device=cuda:0) = aten::clamp_min(%6270, %6852), scope: __main__.XFeatWrapper:: # /home/prlab/.local/lib/python3.10/site-packages/torch/nn/functional.py:5575:0
  %6273 : Float(1, 64, 60, 80, strides=[4800, 0, 80, 1], requires_grad=0, device=cuda:0) = aten::expand_as(%6272, %input.115), scope: __main__.XFeatWrapper:: # /home/prlab/.local/lib/python3.10/site-packages/torch/nn/functional.py:5575:0
  %x : Float(1, 64, 60, 80, strides=[307200, 4800, 80, 1], requires_grad=0, device=cuda:0) = aten::div(%input.115, %6273), scope: __main__.XFeatWrapper:: # /home/prlab/.local/lib/python3.10/site-packages/torch/nn/functional.py:5576:0
  %6853 : Double(device=cpu) = prim::Constant[value={1}]()
  %6786 : Float(1, 65, 60, 80, strides=[312000, 4800, 80, 1], requires_grad=0, device=cuda:0) = aten::mul(%K1, %6853), scope: __main__.XFeatWrapper:: # /home/prlab/jetson_camera_project/xfeat_research/modules/xfeat.py:243:0
  %6279 : Float(1, 65, 60, 80, strides=[312000, 4800, 80, 1], requires_grad=0, device=cuda:0) = aten::softmax(%6786, %6847, %5327), scope: __main__.XFeatWrapper:: # /home/prlab/.local/lib/python3.10/site-packages/torch/nn/functional.py:2137:0
  %6854 : Long(device=cpu) = prim::Constant[value={9223372036854775807}](), scope: __main__.XFeatWrapper::
  %6284 : Float(1, 65, 60, 80, strides=[312000, 4800, 80, 1], requires_grad=0, device=cuda:0) = aten::slice(%6279, %6838, %6838, %6854, %6847), scope: __main__.XFeatWrapper:: # /home/prlab/jetson_camera_project/xfeat_research/modules/xfeat.py:243:0
  %6289 : Float(1, 64, 60, 80, strides=[312000, 4800, 80, 1], requires_grad=0, device=cuda:0) = aten::slice(%6284, %6847, %6838, %6849, %6847), scope: __main__.XFeatWrapper:: # /home/prlab/jetson_camera_project/xfeat_research/modules/xfeat.py:243:0
  %6291 : Long(device=cpu) = aten::size(%6289, %6838), scope: __main__.XFeatWrapper:: # /home/prlab/jetson_camera_project/xfeat_research/modules/xfeat.py:244:0
  %6299 : Long(device=cpu) = aten::size(%6289, %6840), scope: __main__.XFeatWrapper:: # /home/prlab/jetson_camera_project/xfeat_research/modules/xfeat.py:244:0
  %6303 : Long(device=cpu) = aten::size(%6289, %6841), scope: __main__.XFeatWrapper:: # /home/prlab/jetson_camera_project/xfeat_research/modules/xfeat.py:244:0
  %6760 : int[] = prim::Constant[value=[0, 2, 3, 1]]()
  %6311 : Float(1, 60, 80, 64, strides=[312000, 80, 1, 4800], requires_grad=0, device=cuda:0) = aten::permute(%6289, %6760), scope: __main__.XFeatWrapper:: # /home/prlab/jetson_camera_project/xfeat_research/modules/xfeat.py:245:0
  %6314 : int[] = prim::ListConstruct(%6291, %6299, %6303, %6848, %6848), scope: __main__.XFeatWrapper::
  %6315 : Float(1, 60, 80, 8, 8, strides=[4800, 80, 1, 38400, 4800], requires_grad=0, device=cuda:0) = aten::reshape(%6311, %6314), scope: __main__.XFeatWrapper:: # /home/prlab/jetson_camera_project/xfeat_research/modules/xfeat.py:245:0
  %6761 : int[] = prim::Constant[value=[0, 1, 3, 2, 4]]()
  %6322 : Float(1, 60, 8, 80, 8, strides=[4800, 80, 38400, 1, 4800], requires_grad=0, device=cuda:0) = aten::permute(%6315, %6761), scope: __main__.XFeatWrapper:: # /home/prlab/jetson_camera_project/xfeat_research/modules/xfeat.py:246:0
  %6855 : Long(device=cpu) = prim::Constant[value={8}]()
  %6788 : Long(requires_grad=0, device=cpu) = aten::mul(%6299, %6855), scope: __main__.XFeatWrapper:: # /home/prlab/jetson_camera_project/xfeat_research/modules/xfeat.py:246:0
  %6856 : Long(device=cpu) = prim::Constant[value={8}]()
  %6790 : Long(requires_grad=0, device=cpu) = aten::mul(%6303, %6856), scope: __main__.XFeatWrapper:: # /home/prlab/jetson_camera_project/xfeat_research/modules/xfeat.py:246:0
  %6330 : int[] = prim::ListConstruct(%6291, %6847, %6788, %6790), scope: __main__.XFeatWrapper::
  %K1h : Float(1, 1, 480, 640, strides=[307200, 307200, 640, 1], requires_grad=0, device=cuda:0) = aten::reshape(%6322, %6330), scope: __main__.XFeatWrapper:: # /home/prlab/jetson_camera_project/xfeat_research/modules/xfeat.py:246:0
  %6333 : Long(device=cpu) = aten::size(%K1h, %6838), scope: __main__.XFeatWrapper:: # /home/prlab/jetson_camera_project/xfeat_research/modules/xfeat.py:250:0
  %6762 : int[] = prim::Constant[value=[5, 5]]()
  %6358 : Float(1, 1, 480, 640, strides=[307200, 307200, 640, 1], requires_grad=0, device=cuda:0) = aten::max_pool2d(%K1h, %6762, %6647, %6651, %6647, %6839), scope: __main__.XFeatWrapper:: # /home/prlab/.local/lib/python3.10/site-packages/torch/nn/functional.py:827:0
  %6359 : Bool(1, 1, 480, 640, strides=[307200, 307200, 640, 1], requires_grad=0, device=cuda:0) = aten::eq(%K1h, %6358), scope: __main__.XFeatWrapper:: # /home/prlab/jetson_camera_project/xfeat_research/modules/xfeat.py:253:0
  %6857 : Double(device=cpu) = prim::Constant[value={0.05}](), scope: __main__.XFeatWrapper::
  %6361 : Bool(1, 1, 480, 640, strides=[307200, 307200, 640, 1], requires_grad=0, device=cuda:0) = aten::gt(%K1h, %6857), scope: __main__.XFeatWrapper:: # /home/prlab/jetson_camera_project/xfeat_research/modules/xfeat.py:253:0
  %pos.1 : Bool(1, 1, 480, 640, strides=[307200, 307200, 640, 1], requires_grad=0, device=cuda:0) = aten::__and__(%6359, %6361), scope: __main__.XFeatWrapper:: # /home/prlab/jetson_camera_project/xfeat_research/modules/xfeat.py:253:0
  %6836 : Bool(1, 480, 640, strides=[307200, 640, 1], requires_grad=0, device=cuda:0) = aten::unbind[_outputs=1](%pos.1, %6838), scope: __main__.XFeatWrapper:: # /home/prlab/.local/lib/python3.10/site-packages/torch/_tensor.py:1181:0
  %6366 : Long(8665, 3, strides=[1, 8665], requires_grad=0, device=cuda:0) = aten::nonzero(%6836), scope: __main__.XFeatWrapper:: # /home/prlab/jetson_camera_project/xfeat_research/modules/xfeat.py:254:0
  %6371 : Long(8665, 2, strides=[1, 8665], requires_grad=0, device=cuda:0) = aten::slice(%6366, %6847, %6847, %6854, %6847), scope: __main__.XFeatWrapper:: # /home/prlab/jetson_camera_project/xfeat_research/modules/xfeat.py:254:0
  %6766 : int[] = prim::Constant[value=[-1]]()
  %x.27 : Long(8665, 2, strides=[1, 8665], requires_grad=0, device=cuda:0) = aten::flip(%6371, %6766), scope: __main__.XFeatWrapper:: # /home/prlab/jetson_camera_project/xfeat_research/modules/xfeat.py:254:0
  %6858 : Long(device=cpu) = prim::Constant[value={8665}](), scope: __main__.XFeatWrapper::
  %6383 : int[] = prim::ListConstruct(%6333, %6858, %6840), scope: __main__.XFeatWrapper::
  %6859 : Long(device=cpu) = prim::Constant[value={4}](), scope: __main__.XFeatWrapper::
  %6386 : Device = prim::Constant[value="cuda:0"](), scope: __main__.XFeatWrapper:: # /home/prlab/jetson_camera_project/xfeat_research/modules/xfeat.py:257:0
  %pos.3 : Long(1, 8665, 2, strides=[17330, 2, 1], requires_grad=0, device=cuda:0) = aten::zeros(%6383, %6859, %5327, %6386, %6839), scope: __main__.XFeatWrapper:: # /home/prlab/jetson_camera_project/xfeat_research/modules/xfeat.py:257:0
  %6397 : Long(8665, 2, strides=[2, 1], requires_grad=0, device=cuda:0) = aten::select(%pos.3, %6838, %6838), scope: __main__.XFeatWrapper:: # /home/prlab/jetson_camera_project/xfeat_research/modules/xfeat.py:261:0
  %6402 : Long(8665, 2, strides=[2, 1], requires_grad=0, device=cuda:0) = aten::slice(%6397, %6838, %6838, %6858, %6847), scope: __main__.XFeatWrapper:: # /home/prlab/jetson_camera_project/xfeat_research/modules/xfeat.py:261:0
  %6407 : Long(8665, 2, strides=[2, 1], requires_grad=0, device=cuda:0) = aten::slice(%6402, %6847, %6838, %6854, %6847), scope: __main__.XFeatWrapper:: # /home/prlab/jetson_camera_project/xfeat_research/modules/xfeat.py:261:0
  %6826 : Tensor?[] = prim::ListConstruct()
  %x.7 : Long(8665, 2, strides=[1, 8665], requires_grad=0, device=cuda:0) = aten::expand_as(%x.27, %6407), scope: __main__.XFeatWrapper:: # /home/prlab/jetson_camera_project/xfeat_research/modules/xfeat.py:261:0
  %6829 : Tensor = onnx::Placeholder[name="index_put_"](%pos.3), scope: __main__.XFeatWrapper:: # /home/prlab/jetson_camera_project/xfeat_research/modules/xfeat.py:261:0
    block0():
      %6830 : Long(8665, 2, strides=[2, 1], requires_grad=0, device=cuda:0) = aten::select(%pos.3, %6838, %6838), scope: __main__.XFeatWrapper:: # /home/prlab/jetson_camera_project/xfeat_research/modules/xfeat.py:261:0
      %6831 : Long(8665, 2, strides=[2, 1], requires_grad=0, device=cuda:0) = aten::slice(%6830, %6838, %6838, %6858, %6847), scope: __main__.XFeatWrapper:: # /home/prlab/jetson_camera_project/xfeat_research/modules/xfeat.py:261:0
      %6832 : Long(8665, 2, strides=[2, 1], requires_grad=0, device=cuda:0) = aten::slice(%6831, %6847, %6838, %6854, %6847), scope: __main__.XFeatWrapper:: # /home/prlab/jetson_camera_project/xfeat_research/modules/xfeat.py:261:0
      %6833 : Long(8665, 2, strides=[2, 1], requires_grad=0, device=cuda:0) = aten::index_put_(%6832, %6826, %x.7, %6839), scope: __main__.XFeatWrapper:: # /home/prlab/jetson_camera_project/xfeat_research/modules/xfeat.py:261:0
      -> (%6833)
  %6768 : Long(2, strides=[1], requires_grad=0, device=cuda:0) = prim::Constant[value= 639  479 [ CUDALongType{2} ]]()
  %6424 : Float(1, 8665, 2, strides=[17330, 2, 1], requires_grad=0, device=cuda:0) = aten::div(%6829, %6768), scope: __main__.XFeatWrapper:: # /home/prlab/jetson_camera_project/xfeat_research/modules/interpolator.py:19:0
  %6860 : Double(device=cpu) = prim::Constant[value={2}]()
  %6792 : Float(1, 8665, 2, strides=[17330, 2, 1], requires_grad=0, device=cuda:0) = aten::mul(%6424, %6860), scope: __main__.XFeatWrapper:: # /home/prlab/jetson_camera_project/xfeat_research/modules/interpolator.py:19:0
  %6861 : Double(device=cpu) = prim::Constant[value={1}]()
  %6794 : Float(1, 8665, 2, strides=[17330, 2, 1], requires_grad=0, device=cuda:0) = aten::sub(%6792, %6861, %6847), scope: __main__.XFeatWrapper:: # /home/prlab/jetson_camera_project/xfeat_research/modules/interpolator.py:19:0
  %6862 : Long(device=cpu) = prim::Constant[value={-2}](), scope: __main__.XFeatWrapper::
  %6431 : Float(1, 8665, 1, 2, strides=[17330, 2, 2, 1], requires_grad=0, device=cuda:0) = aten::unsqueeze(%6794, %6862), scope: __main__.XFeatWrapper:: # /home/prlab/jetson_camera_project/xfeat_research/modules/interpolator.py:31:0
  %grid.1 : Float(1, 8665, 1, 2, strides=[17330, 2, 2, 1], requires_grad=0, device=cuda:0) = aten::to(%6431, %6837, %6839, %6839, %5327), scope: __main__.XFeatWrapper:: # /home/prlab/jetson_camera_project/xfeat_research/modules/interpolator.py:31:0
  %6440 : Float(1, 1, 8665, 1, strides=[8665, 8665, 1, 1], requires_grad=0, device=cuda:0) = aten::grid_sampler(%K1h, %grid.1, %6847, %6838, %6839), scope: __main__.XFeatWrapper:: # /home/prlab/.local/lib/python3.10/site-packages/torch/nn/functional.py:5112:0
  %6446 : Float(1, 8665, 1, 1, strides=[8665, 1, 1, 8665], requires_grad=0, device=cuda:0) = aten::permute(%6440, %6760), scope: __main__.XFeatWrapper:: # /home/prlab/jetson_camera_project/xfeat_research/modules/interpolator.py:33:0
  %6448 : Float(1, 8665, 1, strides=[8665, 1, 8665], requires_grad=0, device=cuda:0) = aten::squeeze(%6446, %6862), scope: __main__.XFeatWrapper:: # /home/prlab/jetson_camera_project/xfeat_research/modules/interpolator.py:33:0
  %6463 : Float(1, 8665, 2, strides=[17330, 2, 1], requires_grad=0, device=cuda:0) = aten::div(%6829, %6768), scope: __main__.XFeatWrapper:: # /home/prlab/jetson_camera_project/xfeat_research/modules/interpolator.py:19:0
  %6863 : Double(device=cpu) = prim::Constant[value={2}]()
  %6796 : Float(1, 8665, 2, strides=[17330, 2, 1], requires_grad=0, device=cuda:0) = aten::mul(%6463, %6863), scope: __main__.XFeatWrapper:: # /home/prlab/jetson_camera_project/xfeat_research/modules/interpolator.py:19:0
  %6864 : Double(device=cpu) = prim::Constant[value={1}]()
  %6798 : Float(1, 8665, 2, strides=[17330, 2, 1], requires_grad=0, device=cuda:0) = aten::sub(%6796, %6864, %6847), scope: __main__.XFeatWrapper:: # /home/prlab/jetson_camera_project/xfeat_research/modules/interpolator.py:19:0
  %6470 : Float(1, 8665, 1, 2, strides=[17330, 2, 2, 1], requires_grad=0, device=cuda:0) = aten::unsqueeze(%6798, %6862), scope: __main__.XFeatWrapper:: # /home/prlab/jetson_camera_project/xfeat_research/modules/interpolator.py:31:0
  %grid.3 : Float(1, 8665, 1, 2, strides=[17330, 2, 2, 1], requires_grad=0, device=cuda:0) = aten::to(%6470, %6837, %6839, %6839, %5327), scope: __main__.XFeatWrapper:: # /home/prlab/jetson_camera_project/xfeat_research/modules/interpolator.py:31:0
  %6479 : Float(1, 1, 8665, 1, strides=[8665, 8665, 1, 1], requires_grad=0, device=cuda:0) = aten::grid_sampler(%x.9, %grid.3, %6838, %6838, %6839), scope: __main__.XFeatWrapper:: # /home/prlab/.local/lib/python3.10/site-packages/torch/nn/functional.py:5112:0
  %6485 : Float(1, 8665, 1, 1, strides=[8665, 1, 1, 8665], requires_grad=0, device=cuda:0) = aten::permute(%6479, %6760), scope: __main__.XFeatWrapper:: # /home/prlab/jetson_camera_project/xfeat_research/modules/interpolator.py:33:0
  %6487 : Float(1, 8665, 1, strides=[8665, 1, 8665], requires_grad=0, device=cuda:0) = aten::squeeze(%6485, %6862), scope: __main__.XFeatWrapper:: # /home/prlab/jetson_camera_project/xfeat_research/modules/interpolator.py:33:0
  %6488 : Float(1, 8665, 1, strides=[8665, 1, 1], requires_grad=0, device=cuda:0) = aten::mul(%6448, %6487), scope: __main__.XFeatWrapper:: # /home/prlab/jetson_camera_project/xfeat_research/modules/xfeat.py:79:0
  %6490 : Float(1, 8665, strides=[8665, 1], requires_grad=0, device=cuda:0) = aten::squeeze(%6488, %6850), scope: __main__.XFeatWrapper:: # /home/prlab/jetson_camera_project/xfeat_research/modules/xfeat.py:79:0
  %6492 : Bool(1, 8665, 2, strides=[17330, 2, 1], requires_grad=0, device=cuda:0) = aten::eq(%6829, %6838), scope: __main__.XFeatWrapper:: # /home/prlab/jetson_camera_project/xfeat_research/modules/xfeat.py:80:0
  %6495 : Bool(1, 8665, strides=[8665, 1], requires_grad=0, device=cuda:0) = aten::all(%6492, %6850, %6839), scope: __main__.XFeatWrapper:: # /home/prlab/jetson_camera_project/xfeat_research/modules/xfeat.py:80:0
  %6496 : Tensor?[] = prim::ListConstruct(%6495), scope: __main__.XFeatWrapper::
  %6497 : Float(requires_grad=0, device=cpu) = prim::Constant[value={-1}](), scope: __main__.XFeatWrapper:: # /home/prlab/jetson_camera_project/xfeat_research/modules/xfeat.py:80:0
  %6834 : Tensor = onnx::Placeholder[name="index_put_"](%6490), scope: __main__.XFeatWrapper:: # /home/prlab/jetson_camera_project/xfeat_research/modules/xfeat.py:80:0
    block0():
      %6835 : Float(1, 8665, strides=[8665, 1], requires_grad=0, device=cuda:0) = aten::index_put_(%6490, %6496, %6497, %6839), scope: __main__.XFeatWrapper:: # /home/prlab/jetson_camera_project/xfeat_research/modules/xfeat.py:80:0
      -> (%6835)
  %6500 : Float(1, 8665, strides=[8665, 1], requires_grad=0, device=cuda:0) = aten::neg(%6834), scope: __main__.XFeatWrapper:: # /home/prlab/jetson_camera_project/xfeat_research/modules/xfeat.py:83:0
  %6503 : Long(1, 8665, strides=[8665, 1], requires_grad=0, device=cuda:0) = aten::argsort(%6500, %6850, %6839), scope: __main__.XFeatWrapper:: # /home/prlab/jetson_camera_project/xfeat_research/modules/xfeat.py:83:0
  %6506 : Long(1, 8665, strides=[17330, 2], requires_grad=0, device=cuda:0) = aten::select(%6829, %6840, %6838), scope: __main__.XFeatWrapper:: # /home/prlab/jetson_camera_project/xfeat_research/modules/xfeat.py:84:0
  %6509 : Long(1, 8665, strides=[8665, 1], requires_grad=0, device=cuda:0) = aten::gather(%6506, %6850, %6503, %6839), scope: __main__.XFeatWrapper:: # /home/prlab/jetson_camera_project/xfeat_research/modules/xfeat.py:84:0
  %6514 : Long(1, 8665, strides=[8665, 1], requires_grad=0, device=cuda:0) = aten::slice(%6509, %6838, %6838, %6854, %6847), scope: __main__.XFeatWrapper:: # /home/prlab/jetson_camera_project/xfeat_research/modules/xfeat.py:84:0
  %6865 : Long(device=cpu) = prim::Constant[value={500}](), scope: __main__.XFeatWrapper::
  %6519 : Long(1, 500, strides=[8665, 1], requires_grad=0, device=cuda:0) = aten::slice(%6514, %6847, %6838, %6865, %6847), scope: __main__.XFeatWrapper:: # /home/prlab/jetson_camera_project/xfeat_research/modules/xfeat.py:84:0
  %6522 : Long(1, 8665, strides=[17330, 2], requires_grad=0, device=cuda:0) = aten::select(%6829, %6840, %6847), scope: __main__.XFeatWrapper:: # /home/prlab/jetson_camera_project/xfeat_research/modules/xfeat.py:85:0
  %6525 : Long(1, 8665, strides=[8665, 1], requires_grad=0, device=cuda:0) = aten::gather(%6522, %6850, %6503, %6839), scope: __main__.XFeatWrapper:: # /home/prlab/jetson_camera_project/xfeat_research/modules/xfeat.py:85:0
  %6530 : Long(1, 8665, strides=[8665, 1], requires_grad=0, device=cuda:0) = aten::slice(%6525, %6838, %6838, %6854, %6847), scope: __main__.XFeatWrapper:: # /home/prlab/jetson_camera_project/xfeat_research/modules/xfeat.py:85:0
  %6535 : Long(1, 500, strides=[8665, 1], requires_grad=0, device=cuda:0) = aten::slice(%6530, %6847, %6838, %6865, %6847), scope: __main__.XFeatWrapper:: # /home/prlab/jetson_camera_project/xfeat_research/modules/xfeat.py:85:0
  %6537 : Long(1, 500, 1, strides=[8665, 1, 1], requires_grad=0, device=cuda:0) = aten::unsqueeze(%6519, %6840), scope: __main__.XFeatWrapper:: # /home/prlab/jetson_camera_project/xfeat_research/modules/xfeat.py:86:0
  %6539 : Long(1, 500, 1, strides=[8665, 1, 1], requires_grad=0, device=cuda:0) = aten::unsqueeze(%6535, %6840), scope: __main__.XFeatWrapper:: # /home/prlab/jetson_camera_project/xfeat_research/modules/xfeat.py:86:0
  %6540 : Tensor[] = prim::ListConstruct(%6537, %6539), scope: __main__.XFeatWrapper::
  %pos : Long(1, 500, 2, strides=[1000, 2, 1], requires_grad=0, device=cuda:0) = aten::cat(%6540, %6850), scope: __main__.XFeatWrapper:: # /home/prlab/jetson_camera_project/xfeat_research/modules/xfeat.py:86:0
  %6545 : Float(1, 8665, strides=[8665, 1], requires_grad=0, device=cuda:0) = aten::gather(%6834, %6850, %6503, %6839), scope: __main__.XFeatWrapper:: # /home/prlab/jetson_camera_project/xfeat_research/modules/xfeat.py:87:0
  %6550 : Float(1, 8665, strides=[8665, 1], requires_grad=0, device=cuda:0) = aten::slice(%6545, %6838, %6838, %6854, %6847), scope: __main__.XFeatWrapper:: # /home/prlab/jetson_camera_project/xfeat_research/modules/xfeat.py:87:0
  %scores : Float(1, 500, strides=[8665, 1], requires_grad=0, device=cuda:0) = aten::slice(%6550, %6847, %6838, %6865, %6847), scope: __main__.XFeatWrapper:: # /home/prlab/jetson_camera_project/xfeat_research/modules/xfeat.py:87:0
  %6570 : Float(1, 500, 2, strides=[1000, 2, 1], requires_grad=0, device=cuda:0) = aten::div(%pos, %6768), scope: __main__.XFeatWrapper::/modules.interpolator.InterpolateSparse2d::interpolator # /home/prlab/jetson_camera_project/xfeat_research/modules/interpolator.py:19:0
  %6866 : Double(device=cpu) = prim::Constant[value={2}]()
  %6800 : Float(1, 500, 2, strides=[1000, 2, 1], requires_grad=0, device=cuda:0) = aten::mul(%6570, %6866), scope: __main__.XFeatWrapper::/modules.interpolator.InterpolateSparse2d::interpolator # /home/prlab/jetson_camera_project/xfeat_research/modules/interpolator.py:19:0
  %6867 : Double(device=cpu) = prim::Constant[value={1}]()
  %6802 : Float(1, 500, 2, strides=[1000, 2, 1], requires_grad=0, device=cuda:0) = aten::sub(%6800, %6867, %6847), scope: __main__.XFeatWrapper::/modules.interpolator.InterpolateSparse2d::interpolator # /home/prlab/jetson_camera_project/xfeat_research/modules/interpolator.py:19:0
  %6577 : Float(1, 500, 1, 2, strides=[1000, 2, 2, 1], requires_grad=0, device=cuda:0) = aten::unsqueeze(%6802, %6862), scope: __main__.XFeatWrapper::/modules.interpolator.InterpolateSparse2d::interpolator # /home/prlab/jetson_camera_project/xfeat_research/modules/interpolator.py:31:0
  %grid : Float(1, 500, 1, 2, strides=[1000, 2, 2, 1], requires_grad=0, device=cuda:0) = aten::to(%6577, %6837, %6839, %6839, %5327), scope: __main__.XFeatWrapper::/modules.interpolator.InterpolateSparse2d::interpolator # /home/prlab/jetson_camera_project/xfeat_research/modules/interpolator.py:31:0
  %6586 : Float(1, 64, 500, 1, strides=[32000, 500, 1, 1], requires_grad=0, device=cuda:0) = aten::grid_sampler(%x, %grid, %6840, %6838, %6839), scope: __main__.XFeatWrapper::/modules.interpolator.InterpolateSparse2d::interpolator # /home/prlab/.local/lib/python3.10/site-packages/torch/nn/functional.py:5112:0
  %6592 : Float(1, 500, 1, 64, strides=[32000, 1, 1, 500], requires_grad=0, device=cuda:0) = aten::permute(%6586, %6760), scope: __main__.XFeatWrapper::/modules.interpolator.InterpolateSparse2d::interpolator # /home/prlab/jetson_camera_project/xfeat_research/modules/interpolator.py:33:0
  %feats.1 : Float(1, 500, 64, strides=[32000, 1, 500], requires_grad=0, device=cuda:0) = aten::squeeze(%6592, %6862), scope: __main__.XFeatWrapper::/modules.interpolator.InterpolateSparse2d::interpolator # /home/prlab/jetson_camera_project/xfeat_research/modules/interpolator.py:33:0
  %6600 : Float(1, 500, 1, strides=[500, 1, 1], requires_grad=0, device=cuda:0) = aten::linalg_vector_norm(%feats.1, %6851, %6766, %6844, %5327), scope: __main__.XFeatWrapper:: # /home/prlab/.local/lib/python3.10/site-packages/torch/functional.py:1855:0
  %6602 : Float(1, 500, 1, strides=[500, 1, 1], requires_grad=0, device=cuda:0) = aten::clamp_min(%6600, %6852), scope: __main__.XFeatWrapper:: # /home/prlab/.local/lib/python3.10/site-packages/torch/nn/functional.py:5575:0
  %6603 : Float(1, 500, 64, strides=[500, 1, 0], requires_grad=0, device=cuda:0) = aten::expand_as(%6602, %feats.1), scope: __main__.XFeatWrapper:: # /home/prlab/.local/lib/python3.10/site-packages/torch/nn/functional.py:5575:0
  %feats : Float(1, 500, 64, strides=[32000, 1, 500], requires_grad=0, device=cuda:0) = aten::div(%feats.1, %6603), scope: __main__.XFeatWrapper:: # /home/prlab/.local/lib/python3.10/site-packages/torch/nn/functional.py:5576:0
  %6780 : Float(1, 1, 2, strides=[2, 2, 1], requires_grad=0, device=cuda:0) = prim::Constant[value=(1,.,.) =   1  1 [ CUDAFloatType{1,1,2} ]]()
  %mkpts : Float(1, 500, 2, strides=[1000, 2, 1], requires_grad=0, device=cuda:0) = aten::mul(%pos, %6780), scope: __main__.XFeatWrapper:: # /home/prlab/jetson_camera_project/xfeat_research/modules/xfeat.py:96:0
  %valid : Bool(1, 500, strides=[500, 1], requires_grad=0, device=cuda:0) = aten::gt(%scores, %6838), scope: __main__.XFeatWrapper:: # /home/prlab/jetson_camera_project/xfeat_research/modules/xfeat.py:98:0
  %6623 : Float(500, 2, strides=[2, 1], requires_grad=0, device=cuda:0) = aten::select(%mkpts, %6838, %6838), scope: __main__.XFeatWrapper:: # /home/prlab/jetson_camera_project/xfeat_research/modules/xfeat.py:100:0
  %6626 : Bool(500, strides=[1], requires_grad=0, device=cuda:0) = aten::select(%valid, %6838, %6838), scope: __main__.XFeatWrapper:: # /home/prlab/jetson_camera_project/xfeat_research/modules/xfeat.py:100:0
  %6627 : Tensor?[] = prim::ListConstruct(%6626), scope: __main__.XFeatWrapper::
  %6628 : Float(500, 2, strides=[2, 1], requires_grad=0, device=cuda:0) = aten::index(%6623, %6627), scope: __main__.XFeatWrapper:: # /home/prlab/jetson_camera_project/xfeat_research/modules/xfeat.py:100:0
  %6631 : Float(500, strides=[1], requires_grad=0, device=cuda:0) = aten::select(%scores, %6838, %6838), scope: __main__.XFeatWrapper:: # /home/prlab/jetson_camera_project/xfeat_research/modules/xfeat.py:101:0
  %6636 : Float(500, strides=[1], requires_grad=0, device=cuda:0) = aten::index(%6631, %6627), scope: __main__.XFeatWrapper:: # /home/prlab/jetson_camera_project/xfeat_research/modules/xfeat.py:101:0
  %6639 : Float(500, 64, strides=[1, 500], requires_grad=0, device=cuda:0) = aten::select(%feats, %6838, %6838), scope: __main__.XFeatWrapper:: # /home/prlab/jetson_camera_project/xfeat_research/modules/xfeat.py:102:0
  %6644 : Float(500, 64, strides=[64, 1], requires_grad=0, device=cuda:0) = aten::index(%6639, %6627), scope: __main__.XFeatWrapper:: # /home/prlab/jetson_camera_project/xfeat_research/modules/xfeat.py:102:0
  return (%6628, %6636, %6644)

Traceback (most recent call last):
  File "/home/prlab/jetson_camera_project/xfeat_research/export_xfeat_onnx.py", line 21, in <module>
    torch.onnx.export(model, dummy_input, "xfeat.onnx", 
  File "/home/prlab/.local/lib/python3.10/site-packages/torch/onnx/__init__.py", line 408, in export
    export(
  File "/home/prlab/.local/lib/python3.10/site-packages/torch/onnx/utils.py", line 522, in export
    _export(
  File "/home/prlab/.local/lib/python3.10/site-packages/torch/onnx/utils.py", line 1457, in _export
    graph, params_dict, torch_out = _model_to_graph(
  File "/home/prlab/.local/lib/python3.10/site-packages/torch/onnx/utils.py", line 1084, in _model_to_graph
    graph = _optimize_graph(
  File "/home/prlab/.local/lib/python3.10/site-packages/torch/onnx/utils.py", line 659, in _optimize_graph
    graph = _C._jit_pass_onnx(graph, operator_export_type)
  File "/home/prlab/.local/lib/python3.10/site-packages/torch/onnx/utils.py", line 1726, in _run_symbolic_function
    return symbolic_fn(graph_context, *inputs, **attrs)
  File "/home/prlab/.local/lib/python3.10/site-packages/torch/onnx/symbolic_helper.py", line 282, in wrapper
    return fn(g, *args, **kwargs)
  File "/home/prlab/.local/lib/python3.10/site-packages/torch/onnx/symbolic_opset12.py", line 314, in unfold
    return opset9.unfold(g, input, dimension, const_size, const_step)
  File "/home/prlab/.local/lib/python3.10/site-packages/torch/onnx/symbolic_helper.py", line 282, in wrapper
    return fn(g, *args, **kwargs)
  File "/home/prlab/.local/lib/python3.10/site-packages/torch/onnx/symbolic_opset9.py", line 2907, in unfold
    return symbolic_helper._unimplemented(
  File "/home/prlab/.local/lib/python3.10/site-packages/torch/onnx/symbolic_helper.py", line 563, in _unimplemented
    _onnx_unsupported(f"{op}, {msg}", value)
  File "/home/prlab/.local/lib/python3.10/site-packages/torch/onnx/symbolic_helper.py", line 573, in _onnx_unsupported
    raise errors.SymbolicValueError(
torch.onnx.errors.SymbolicValueError: Unsupported: ONNX export of operator Unfold, input size not accessible. Please feel free to request support or submit a pull request on PyTorch GitHub: https://github.com/pytorch/pytorch/issues  [Caused by the value 'input.3 defined in (%input.3 : Float(*, 1, *, *, strides=[307200, 307200, 640, 1], requires_grad=0, device=cuda:0) = onnx::InstanceNormalization[epsilon=1.0000000000000001e-05](%input, %173, %174), scope: __main__.XFeatWrapper::/modules.model.XFeatModel::net/torch.nn.modules.instancenorm.InstanceNorm2d::norm # /home/prlab/.local/lib/python3.10/site-packages/torch/nn/functional.py:2871:0
)' (type 'Tensor') in the TorchScript graph. The containing node has kind 'onnx::InstanceNormalization'.] 
    (node defined in /home/prlab/.local/lib/python3.10/site-packages/torch/nn/functional.py(2871): instance_norm
/home/prlab/.local/lib/python3.10/site-packages/torch/nn/modules/instancenorm.py(47): _apply_instance_norm
/home/prlab/.local/lib/python3.10/site-packages/torch/nn/modules/instancenorm.py(124): forward
/home/prlab/.local/lib/python3.10/site-packages/torch/nn/modules/module.py(1763): _slow_forward
/home/prlab/.local/lib/python3.10/site-packages/torch/nn/modules/module.py(1784): _call_impl
/home/prlab/.local/lib/python3.10/site-packages/torch/nn/modules/module.py(1773): _wrapped_call_impl
/home/prlab/jetson_camera_project/xfeat_research/modules/model.py(136): forward
/home/prlab/.local/lib/python3.10/site-packages/torch/nn/modules/module.py(1763): _slow_forward
/home/prlab/.local/lib/python3.10/site-packages/torch/nn/modules/module.py(1784): _call_impl
/home/prlab/.local/lib/python3.10/site-packages/torch/nn/modules/module.py(1773): _wrapped_call_impl
/home/prlab/jetson_camera_project/xfeat_research/modules/xfeat.py(69): detectAndCompute
/home/prlab/.local/lib/python3.10/site-packages/torch/utils/_contextlib.py(120): decorate_context
/home/prlab/jetson_camera_project/xfeat_research/export_xfeat_onnx.py(11): forward
/home/prlab/.local/lib/python3.10/site-packages/torch/nn/modules/module.py(1763): _slow_forward
/home/prlab/.local/lib/python3.10/site-packages/torch/nn/modules/module.py(1784): _call_impl
/home/prlab/.local/lib/python3.10/site-packages/torch/nn/modules/module.py(1773): _wrapped_call_impl
/home/prlab/.local/lib/python3.10/site-packages/torch/jit/_trace.py(129): wrapper
/home/prlab/.local/lib/python3.10/site-packages/torch/jit/_trace.py(138): forward
/home/prlab/.local/lib/python3.10/site-packages/torch/nn/modules/module.py(1784): _call_impl
/home/prlab/.local/lib/python3.10/site-packages/torch/nn/modules/module.py(1773): _wrapped_call_impl
/home/prlab/.local/lib/python3.10/site-packages/torch/jit/_trace.py(1403): _get_trace_graph
/home/prlab/.local/lib/python3.10/site-packages/torch/onnx/utils.py(871): _trace_and_get_graph_from_model
/home/prlab/.local/lib/python3.10/site-packages/torch/onnx/utils.py(964): _create_jit_graph
/home/prlab/.local/lib/python3.10/site-packages/torch/onnx/utils.py(1080): _model_to_graph
/home/prlab/.local/lib/python3.10/site-packages/torch/onnx/utils.py(1457): _export
/home/prlab/.local/lib/python3.10/site-packages/torch/onnx/utils.py(522): export
/home/prlab/.local/lib/python3.10/site-packages/torch/onnx/__init__.py(408): export
/home/prlab/jetson_camera_project/xfeat_research/export_xfeat_onnx.py(21): <module>
)

    Inputs:
        #0: input defined in (%input : Float(*, 1, *, *, strides=[307200, 307200, 640, 1], requires_grad=0, device=cuda:0) = onnx::ReduceMean[axes=[1], keepdims=1](%167), scope: __main__.XFeatWrapper::/modules.model.XFeatModel::net # /home/prlab/jetson_camera_project/xfeat_research/modules/model.py:135:0
    )  (type 'Tensor')
        #1: 173 defined in (%173 : Float(1, strides=[1], device=cpu) = onnx::Constant[value={1}](), scope: __main__.XFeatWrapper::/modules.model.XFeatModel::net/torch.nn.modules.instancenorm.InstanceNorm2d::norm # /home/prlab/.local/lib/python3.10/site-packages/torch/nn/functional.py:2871:0
    )  (type 'Tensor')
        #2: 174 defined in (%174 : Float(1, strides=[1], device=cpu) = onnx::Constant[value={0}](), scope: __main__.XFeatWrapper::/modules.model.XFeatModel::net/torch.nn.modules.instancenorm.InstanceNorm2d::norm # /home/prlab/.local/lib/python3.10/site-packages/torch/nn/functional.py:2871:0
    )  (type 'Tensor')
    Outputs:
        #0: input.3 defined in (%input.3 : Float(*, 1, *, *, strides=[307200, 307200, 640, 1], requires_grad=0, device=cuda:0) = onnx::InstanceNormalization[epsilon=1.0000000000000001e-05](%input, %173, %174), scope: __main__.XFeatWrapper::/modules.model.XFeatModel::net/torch.nn.modules.instancenorm.InstanceNorm2d::norm # /home/prlab/.local/lib/python3.10/site-packages/torch/nn/functional.py:2871:0
    )  (type 'Tensor'